models/crispr_cnn_untrained_day5.pth (torch, 293065 bytes, 7 tensors)

conv1.weight f4 [32, 4, 3]
000000 00 8c 7f 3a 19 f1 00 be 47 7a 38 be a0 6b 3a 3e
       0.00097483397 -0.12591971 -0.18015395 0.18205118
000010 28 e4 04 bd 00 16 86 bb be 06 93 3e f4 a9 cb 3d
       -0.03244415 -0.004091978 0.2871608 0.09944525
000020 70 3c e2 bd 90 3a d8 3c bc b2 84 3d 5f 4a 8c be
       -0.11046684 0.026395112 0.064794034 -0.2740049
000030 44 b5 54 be 10 cf 2a bd 58 cc cd 3d 70 d8 fe bd
       -0.20772272 -0.041701376 0.10048741 -0.12443626
000040 57 29 37 be ba 87 da bd 30 92 4d be 12 cb 6b be
       -0.17886864 -0.10670419 -0.20075297 -0.23026684
000050 d0 4d 1c 3e 9b 70 5d be 82 5d 06 be 88 36 ee 3d
       0.15264058 -0.21624987 -0.13121608 0.11631495
000060 e0 be 80 3e 69 45 25 be 88 d0 c5 3d f8 44 2c 3d
       0.25145626 -0.16139759 0.09658915 0.04205796
000070 40 ef b8 bc 50 aa 7f 3e 30 63 8a 3e 1e 57 a7 bd
       -0.02257502 0.24967313 0.270288 -0.08170913
000080 8a 2b 26 3e e6 18 7c be 00 3c 5c be 48 6f 63 be
       0.16227546 -0.24618873 -0.21507263 -0.22210419
000090 f8 34 cb bd 20 d7 cc 3d 0e b0 c9 bd 4f 0f 7e be
       -0.09922212 0.10001969 -0.09848033 -0.24810527
0000a0 10 9f f0 3c 68 1c f9 3d 6a 54 1c 3e 04 e4 5e be
       0.029372722 0.12163621 0.15266576 -0.21766669
0000b0 ee aa 2c be 9a 1e 01 3e 10 bc 3d be cc 5e 82 3d
       -0.1686208 0.1260933 -0.18528771 0.06365737
0000c0 67 d4 7d be c0 37 ae bb d4 3b 63 be 7c 91 91 3e
       -0.24788056 -0.0053167045 -0.22190791 0.28431308
0000d0 e2 9d 93 3e c0 a3 66 bc 10 e2 e8 bc aa 23 77 be
       0.28831393 -0.014077127 -0.028428108 -0.24134699
0000e0 b9 35 83 be d8 04 4e bd fe 8f 00 3e 67 b0 5d be
       -0.25626925 -0.050297588 0.12554929 -0.21649323
0000f0 3c e8 fd 3d 62 f9 85 be 6c 0f 7a be ac cc 8a 3e
       0.12397811 -0.26166826 -0.24419945 0.27109277
000100 ba a8 8d 3e c0 e5 6e 3e 04 ae 46 3e 2c e3 b7 bd
       0.2766779 0.2332983 0.19402319 -0.089788765
000110 ce 6c 47 3e 18 6d 64 3e 00 62 1f 3e 70 13 66 3e
       0.194751 0.22307241 0.15564728 0.22468352
000120 98 16 42 3d f0 41 bd bc 48 12 d0 3d 40 b1 02 be
       0.04738483 -0.02310273 0.10159737 -0.12762928
000130 c0 16 a0 3c be 70 62 be 3c d3 8f bd bc b7 8b 3e
       0.019542098 -0.2211332 -0.07022712 0.27288616
000140 f0 15 d5 bc 28 4e 32 3d 39 f8 86 be 48 42 2b be
       -0.026011437 0.043531567 -0.26361254 -0.16724503
000150 20 00 4d 3c 6e d6 61 be 00 26 c9 ba 64 b2 85 3e
       0.012512237 -0.22054455 -0.0015346408 0.26112664
000160 56 0d 2a 3e 61 91 1b be aa f8 29 3e 80 16 24 3b
       0.1660665 -0.15192176 0.16598764 0.0025037825
000170 60 d3 e7 3c 80 e6 2e 3d 16 1a de bd 3c ef 8c be
       0.028299034 0.04270029 -0.10844819 -0.2752627
000180 1a 15 56 be ea d4 3b 3e 54 0d 01 3e 7c 7b 5f 3e
       -0.20906487 0.18342939 0.1260274 0.2182445
000190 3b 5b 83 be 10 69 3f 3d d8 b6 e9 bd 70 a6 85 3e
       -0.2565554 0.046731055 -0.11411828 0.26103544
0001a0 b3 2d 3c be 18 53 78 3e 60 39 ff 3c e2 06 88 bd
       -0.18376808 0.24250448 0.031155288 -0.06641938
0001b0 0a 36 42 be d4 23 f2 3d ba 2e ab bd c3 ef 19 be
       -0.18965927 0.1182324 -0.08358522 -0.15032868
0001c0 2c ff ce 3d ca b9 3c be e0 99 89 3e c8 0f f6 bd
       0.10107264 -0.18430248 0.2687521 -0.12014729
0001d0 e6 d0 48 be 46 9e 5e be 04 cd 6a bd 70 b2 ea 3c
       -0.19610938 -0.21740064 -0.057324424 0.028649539
0001e0 34 3c 91 3d b6 85 88 3e 4a ad 34 3e 72 dc 2f be
       0.07091561 0.26664513 0.1764423 -0.17173937
0001f0 3e 65 4c 3e bc 14 8d 3d d0 f6 2f 3e d0 d9 49 3e
       0.19960496 0.068887204 0.17183995 0.19711995
000200 06 a7 05 3e 2a 74 45 3e c0 de b9 3d 40 13 a7 bc
       0.13051996 0.19282594 0.09075689 -0.020394921
000210 80 cc 38 bb 6e 61 86 3e 60 46 8d be 6e 62 d9 bd
       -0.0028198063 0.26246208 -0.27592754 -0.10614477
000220 b0 fa 13 3e b6 4c 8f bd 06 0d 46 be 6c eb a5 bd
       0.14451098 -0.06997053 -0.19340906 -0.08101544
000230 f6 f3 36 3e 8c da fa bd d4 9d 2a be 2a 3e d5 bd
       0.17866501 -0.12248716 -0.16661769 -0.104122475
000240 30 f4 2a be 8c 59 ad 3d 3c 67 86 3e 2c 84 f7 bd
       -0.16694713 0.08464345 0.26250637 -0.12085757
000250 5c aa 2e 3e 00 b7 30 3b b8 c1 ac bd f5 34 74 be
       0.17057174 0.0026964545 -0.084353864 -0.23848327
000260 a4 be 30 be 94 4d 67 3e 60 22 81 bd 86 2f 91 3e
       -0.17260224 0.22588187 -0.06305385 0.2835657
000270 aa 02 3e be 18 08 5c bd 99 6a 05 be 72 21 20 be
       -0.18555704 -0.053718656 -0.13028945 -0.15637758
000280 ac 6d 84 3e e6 93 87 3e c8 43 26 3d d4 8c 3a bd
       0.25864923 0.26480025 0.040591985 -0.04554446
000290 c8 be 73 3e 78 4d 2f 3d 2c b8 08 be 5a fd 57 3e
       0.23803246 0.04279849 -0.13351506 0.2109274
0002a0 18 8f 5b 3d 64 36 bc bd 34 72 2a 3e b0 d7 90 bd
       0.05360326 -0.09190062 0.16645128 -0.07072389
0002b0 e8 49 55 3e 2b 16 1d be 64 6b 70 3e aa 4c 36 3e
       0.20828974 -0.15340488 0.23478466 0.17802683
0002c0 00 d4 cd b9 ac 0b 69 3e 00 29 65 3d 6c c6 93 3e
       -0.000392586 0.22758359 0.055947304 0.2886232
0002d0 60 05 54 3d a0 2c db 3c 66 48 03 3e 10 4b 4f 3e
       0.05176294 0.026754677 0.12820587 0.20243478
0002e0 93 ce 31 be 80 c8 c6 bc 34 17 6e 3e 30 77 4a 3e
       -0.17363958 -0.024265528 0.23251039 0.19772029
0002f0 8e f0 08 3e 5e 93 1d 3e c6 70 18 3e 14 16 48 3e
       0.13373014 0.15388247 0.1488677 0.19539672
000300 b4 f5 51 be 22 be 3b 3e 38 b2 39 bd 5e 0b 25 3e
       -0.20503885 0.18334249 -0.04533598 0.16117617
000310 24 16 b2 3d f7 23 23 be 54 df 5e 3e b0 1a 11 3e
       0.08695629 -0.15931688 0.2176488 0.14170337
000320 66 52 0b 3e 27 36 7b be a6 b1 00 3e 00 f9 7c 3b
       0.13605651 -0.24532376 0.12567768 0.0038600564
000330 2c 3f 69 3e 58 1d bb 3d c0 aa d0 bb 72 f3 20 3e
       0.22778004 0.09136456 -0.0063680112 0.15717867
000340 c2 a3 d5 bd 3c d4 8e 3e 2e 34 15 3e 94 a8 8e 3e
       -0.10431625 0.27896297 0.14570686 0.2786299
000350 b4 64 4f bd 73 d7 08 be 5e 0c 4d be 0a fd 8c 3e
       -0.050633147 -0.13363437 -0.20024249 0.27536803
000360 4e ad 29 3e 3d d0 8f be 70 3a 02 3d 8e 74 1e 3e
       0.16570017 -0.2808856 0.03179401 0.1547415
000370 28 da 99 3d 00 72 ac 3c 80 1b 78 3c d8 49 20 3d
       0.07512313 0.021050453 0.015143275 0.039132923
000380 c8 6d b8 3d 6c eb 7e 3e 25 56 89 be 0c ea 88 3e
       0.09005314 0.24894494 -0.26823536 0.26741064
000390 88 f5 d9 3d 00 4b 8e 3e 36 a7 47 3e ca ce 0b 3e
       0.106425345 0.27791595 0.1949738 0.13653103
0003a0 72 e6 86 3e 3a 25 2d be 44 74 20 bd 26 4c 00 3e
       0.2634769 -0.16908732 -0.03917338 0.12529048
0003b0 c8 d4 0d be a6 b1 1a 3e 66 cf 80 3e f0 77 8e 3d
       -0.13850701 0.1510683 0.25158232 0.0695647
0003c0 20 e7 94 3c 48 21 79 3d 78 b5 c0 3d f8 67 ce 3d
       0.018176615 0.060822755 0.094096124 0.10078424
0003d0 88 c5 36 be 5e dd 8d 3e 08 7d 70 3d 30 33 e8 3c
       -0.1784879 0.27707952 0.05871299 0.02834472
0003e0 5c c1 49 3e c0 5a 59 3d 48 4a 59 3e 74 c2 6e bd
       0.19702667 0.05306506 0.21219742 -0.058290914
0003f0 1c cc 64 3e 2c cd 55 be 68 23 01 bd c0 18 d7 3b
       0.22343487 -0.20879048 -0.031527907 0.0065642297

conv1.bias f4 [32]
000000 a0 1a 6c bc 7a e1 03 3e 9e 10 1c 3e a0 9a a5 bc
       -0.014410645 0.12878981 0.15240714 -0.020215333
000010 e8 f9 ce 3d f4 29 2e bd 7c a6 28 be b4 34 5e 3e
       0.101062596 -0.04252048 -0.16469759 0.21699792
000020 ac 7b 30 be 08 70 55 3d 16 7a 87 be ca 8e 91 3e
       -0.17234677 0.052108794 -0.26460332 0.28429252
000030 2c 9f 87 3e 00 09 9d bc 8e 2f 86 3e 82 05 7a be
       0.26488626 -0.01916933 0.26208156 -0.24416164
000040 12 23 85 be e8 a7 c0 3d 40 fb 5d bc 40 75 53 3c
       -0.2600332 0.094070256 -0.013548672 0.012906373
000050 a2 98 11 be 5c 6e a8 bd 30 f8 54 3e 25 48 34 be
       -0.14218381 -0.082241744 0.20797801 -0.17605646
000060 60 f2 d4 3d 9f 29 07 be a0 41 97 3d da b7 93 be
       0.10397792 -0.13199471 0.07385564 -0.28851205
000070 67 df 05 be 57 65 3a be 82 42 cc bd 44 c5 82 3e
       -0.13073502 -0.1820272 -0.09973623 0.25541127

conv2.weight f4 [64, 32, 3]
000000 e0 e0 9f bd f0 8c 6e 3d 7c 95 90 3d 3e ef 17 bd
       -0.078065634 0.058239877 0.07059762 -0.037093394
000010 14 f0 da bc e4 9b 01 3d 0d 0a 9a bd 94 4d ac 3c
       -0.026725806 0.03164281 -0.07521448 0.021033086
000020 b0 cb 28 3d 20 cb b2 3d 2a ba ba bd a0 b5 e4 bb
       0.041209877 0.08730149 -0.09117539 -0.006979659
000030 c8 c6 f5 3c 10 c7 63 3d 60 1a 3f 3c b7 78 36 bd
       0.030002013 0.055609763 0.011664003 -0.044548716
000040 38 83 e7 3c 24 a0 87 3d 70 a3 7d 3c 5a c3 03 bd
       0.028260812 0.06622341 0.015480861 -0.032168724
000050 30 6a 32 3d 60 31 d8 bc 3c ef 87 3c 78 42 8e bd
       0.0435583 -0.026390731 0.016593568 -0.06946272
000060 e2 7b a6 3d 44 85 18 bd 48 a6 d4 3c 2c f3 bb 3d
       0.081290975 -0.037236467 0.025958195 0.09177241
000070 f0 0a fc bc 42 29 c9 bd 83 b6 b9 bd 24 e7 43 3d
       -0.030766934 -0.098223224 -0.090680145 0.047827855
000080 c7 d1 a4 bd c2 0c 8b 3d e0 f6 f3 3b c8 54 cc bc
       -0.08047824 0.06789543 0.0074452013 -0.02494277
000090 69 e9 af bd 12 39 8b bd d0 fc 92 3d d0 f8 49 bd
       -0.08589441 -0.06797995 0.071771264 -0.04930955
0000a0 89 3a 36 bd 70 5f 6e bc 80 98 84 ba 90 dd 45 3d
       -0.044489417 -0.014549121 -0.0010116249 0.048307
0000b0 cc d3 bb 3d 30 92 b1 bc c0 0e b8 3c 50 48 df 3c
       0.091712564 -0.021676153 0.02246797 0.027256161
0000c0 73 c8 72 bd 2c 20 a6 3d 5f 1f b7 bd fc 92 85 bd
       -0.059273195 0.08111605 -0.089415304 -0.06522176
0000d0 01 63 85 bd 8a 1c a6 3d fb b3 b9 bd 22 9f 96 3d
       -0.06513024 0.08110912 -0.09067532 0.07354571
0000e0 fa 4a 8d bd c5 13 c4 bd 7a 97 8d 3d 00 e2 cd bc
       -0.06899066 -0.09574083 0.069136575 -0.02513218
0000f0 1f 8d a2 bd 0e 09 8d 3d b8 46 74 3d d0 7a 0c 3d
       -0.07937073 0.06886493 0.059637755 0.03429681
000100 f0 be 3e 3c 3a 0a 91 bd ac 5c 2e 3d 30 55 2e 3d
       0.011642203 -0.07082029 0.042568848 0.04256171
000110 14 31 ba 3d a4 75 15 3d 4c 92 84 3d 75 a6 b2 bd
       0.09091392 0.036489144 0.064732164 -0.087231554
000120 60 02 37 3b ba bd 84 bd e0 98 59 3b 7c e3 04 bd
       0.0027925 -0.064815 0.0033202693 -0.03244351
000130 dd 7f b2 bd 3a d4 83 3d 0c 2a 81 3d 22 e4 a7 bd
       -0.08715794 0.064369634 0.06306848 -0.0819781
000140 45 db 5f bd 52 81 9e 3d 00 c6 21 bd 14 04 2c 3d
       -0.05465247 0.0773951 -0.03949547 0.041996077
000150 40 86 b0 bc c3 fb bd bd de fa c7 3d 78 a0 21 3c
       -0.02154839 -0.09276535 0.09764646 0.009864919
000160 44 01 bb 3d 14 3d 94 bd ce 37 3a bd 18 95 27 bd
       0.09131101 -0.07238212 -0.045463376 -0.04091367
000170 a0 7d 8c bc fe 94 a8 bd fa 37 b8 3d 2e 58 cf 3d
       -0.017149746 -0.08231543 0.08995052 0.10124241
000180 e8 b8 96 bc 00 db 42 ba f8 dc 97 bd 40 99 fa 3a
       -0.018398717 -0.0007433146 -0.07415193 0.0019119158
000190 24 83 f0 bc 4e 58 98 3d 04 96 4e 3d c8 53 86 3d
       -0.029359408 0.07438718 0.050436035 0.06558949
0001a0 57 8d cc bd 5c a7 d9 bc ca c6 ae bd ae 72 c7 3d
       -0.09987896 -0.026569061 -0.0853401 0.0973867
0001b0 64 02 81 bd 00 21 18 3d f8 d9 15 bd 3f cd d0 bd
       -0.06299284 0.037140846 -0.036584824 -0.101953976
0001c0 27 f7 af bd 1c 97 6a 3d 6c 1d af 3c b0 25 93 bd
       -0.085920624 0.057273015 0.021376334 -0.07184923
0001d0 e0 05 aa 3c 28 13 7c 3c b0 82 f3 3b e8 18 ac bd
       0.020754755 0.015385427 0.0074313506 -0.08403188
0001e0 40 5f 32 3c 70 96 c1 bd 00 57 d3 39 e6 40 6d bd
       0.010886967 -0.09452522 0.00040309876 -0.05792322
0001f0 cf bc bb bd 20 66 61 3d d8 43 98 bd d0 56 3f 3d
       -0.09166872 0.055029035 -0.07434815 0.04671365
000200 18 60 28 bc 2e c3 b2 bd da 39 2f bd 27 a1 cc bd
       -0.010276817 -0.08728634 -0.04277978 -0.09991675
000210 5f e1 a7 bd 28 ce 75 3d d0 20 9d 3c f9 4a 54 bd
       -0.08197283 0.06001106 0.019180685 -0.051829312
000220 2e 1d 71 bd a4 ee 67 3d 00 61 d4 ba 94 09 2f bd
       -0.05886572 0.05662407 -0.0016203225 -0.042733744
000230 48 aa 47 3d dc d7 84 3d 48 08 23 bd 53 bc 74 bd
       0.048746377 0.064864844 -0.03980282 -0.059749912
000240 e0 8f e0 bc a0 ff 85 bc e2 cb b1 3d 2f a6 cd bd
       -0.027412355 -0.016357243 0.08681466 -0.10041463
000250 04 8a 42 3d ed 84 8f bd f8 88 5d 3d fe 66 c9 bd
       0.047494903 -0.070077755 0.0540857 -0.09834097
000260 5c db af bd b0 65 cf bb b8 1f 06 3d 58 b5 bf bc
       -0.08586761 -0.0063292608 0.032745093 -0.023401901
000270 c1 2a 35 bd 44 99 27 bd 2e 48 b9 3d 36 de 46 bd
       -0.044230226 -0.04091765 0.0904697 -0.04855176
000280 50 e0 b6 3c 98 cc f0 bc b6 a6 95 3d 80 1e 28 3b
       0.022323757 -0.029394433 0.07307188 0.0025652945
000290 c9 00 bb bd 9a fb b0 3d 00 7c b1 38 20 90 58 3d
       -0.09131009 0.08641739 8.4631145e-05 0.052871823
0002a0 c5 1d b7 bd 38 c3 bc 3d 04 2e 6e 3d 2c ff 59 3d
       -0.08941225 0.092169225 0.058149353 0.053221866
0002b0 20 12 7e 3b c0 71 c2 ba f4 77 80 bd b0 0e b8 3d
       0.0038768128 -0.0014834926 -0.06272879 0.089871764
0002c0 80 d5 d2 3c cf f3 34 bd 28 88 bf 3d 7c 5b f1 bc
       0.02573657 -0.044177826 0.093521416 -0.029462568
0002d0 9c f1 ae bd 48 eb c9 3c e2 a4 a5 3d 30 b5 16 3d
       -0.08542177 0.024648324 0.080880895 0.036793888
0002e0 d7 ca 6c bd 70 57 0d 3d b7 97 57 bd f0 e9 97 bd
       -0.05781063 0.034507215 -0.05263492 -0.07417667
0002f0 90 b1 bf bb 20 42 9e 3d 8d aa ab bd c2 4b b9 3d
       -0.0058500245 0.07727456 -0.08382139 0.09047653
000300 fa 76 6e bd 80 1e 36 3d e0 2a 9a 3d 58 4d 4d 3d
       -0.058218934 0.04446268 0.07527709 0.05012259
000310 76 1a 83 3d f0 f8 c7 3d 85 f4 67 bd 50 82 28 bc
       0.064015314 0.09764278 -0.056629676 -0.010284975
000320 34 c0 8c 3d ac 2a 7c 3d 78 aa 5f 3d 18 e7 da 3c
       0.06872597 0.061564133 0.05460593 0.026721522
000330 9c d0 92 bc 94 79 2b 3d 1e c7 98 3d 90 fb f1 3c
       -0.017921738 0.041863993 0.074598536 0.0295389
000340 80 14 8c 3a ec dc 76 3d e0 8f 89 bc 28 fc 5c 3d
       0.0010687262 0.06026928 -0.016792238 0.053951412
000350 7c 48 89 bd ae 64 88 3d 40 14 6c bc fc 5e 9e bd
       -0.067032784 0.06659828 -0.014409125 -0.077329606
000360 e3 c0 9d bd dc e0 e5 bc 20 89 dd bb 60 23 9e bc
       -0.07702806 -0.028061323 -0.0067607313 -0.019303977
000370 12 47 9c bd da af 88 3d e8 c4 ce bc fa 2f 61 bd
       -0.07630743 0.06674166 -0.025240377 -0.054977395
000380 e0 cb 0c 3c 2a 7d ab 3d d4 26 c3 3d 60 3a 21 bd
       0.008593529 0.083734825 0.0952889 -0.03936231
000390 54 76 88 3d e8 01 99 3d 00 8d b9 b9 0e ee 99 bd
       0.06663194 0.07471067 -0.00035391003 -0.075161085
0003a0 9c e7 1d bd fa 6b 88 3d e0 70 89 bd 0c dc 3d 3d
       -0.038550958 0.0666122 -0.06710982 0.04635243
0003b0 50 d2 9f 3c ab 4e 48 bd a0 b1 f0 bb 01 55 49 bd
       0.019509465 -0.04890315 -0.0073453933 -0.04915333
0003c0 60 27 5a 3d 28 16 70 3d 20 ff 19 3b c4 70 44 3d
       0.053260207 0.05861488 0.0023498014 0.047959104
0003d0 29 7d 92 bd ec 44 33 3d b2 5e 74 bd 50 df 86 bc
       -0.07152779 0.0437669 -0.05966062 -0.016463906
0003e0 7a 53 a8 3d b4 0d 91 3d c0 43 42 3b b0 d1 cb 3b
       0.08219047 0.07082692 0.0029642433 0.006220065
0003f0 72 c8 9c bd 00 7a 1a 3d b2 97 c0 bd 32 a1 9a 3d
       -0.076554194 0.037714005 -0.094039336 0.07550277

conv2.bias f4 [64]
000000 09 15 3c bd f0 71 6d bc 80 54 55 3c 40 8b 0f 3b
       -0.0459185 -0.014492497 0.013020635 0.0021903068
000010 e3 2c ce bd 97 7c b1 bd f0 8c 77 3c 00 34 71 bb
       -0.10067155 -0.08666342 0.015109286 -0.0036804676
000020 d4 88 23 3d 90 b9 dc 3b 6c 45 79 bd 88 8c b1 bd
       0.03992541 0.006735988 -0.06085722 -0.08669382
000030 86 3b 14 bd 00 fa ac 39 04 35 a5 3c a6 7c a1 3d
       -0.03618958 0.0003299266 0.020166881 0.07885103
000040 5c 8b 29 3d b4 42 5a 3d 70 fb a9 bc 9c 9f 96 bd
       0.04139267 0.05328627 -0.020749778 -0.07354662
000050 3c 6d 8f bc 6e e5 bd bd 48 d0 c6 3d ec 23 ba 3c
       -0.017508142 -0.09272276 0.09707695 0.022722207
000060 44 df cb bd 86 2f 03 bd b0 d2 5b 3d c0 a6 d2 3c
       -0.09954694 -0.032027744 0.053667724 0.025714278
000070 3c 03 0a 3d 56 c2 ba bd 84 91 49 3d fc 9a b6 3d
       0.03369449 -0.09119098 0.04921104 0.0891628
000080 78 27 cc 3d d1 16 5d bd 00 10 c9 b9 04 7d 9f bc
       0.099684656 -0.053976838 -0.00038349628 -0.019468792
000090 7a 1b b3 3d cc c5 54 3d 34 0c c9 3d 85 98 29 bd
       0.08745475 0.051946446 0.09816781 -0.04140522
0000a0 e8 4e 18 bd ca 1e a6 3d 58 df b4 bd 08 25 14 3d
       -0.037184626 0.08111341 -0.08831662 0.03616813
0000b0 6b 0d be bd 90 83 90 3c c4 4f 33 3d 60 53 b1 3c
       -0.09279903 0.017640859 0.043777242 0.021646202
0000c0 00 80 61 bb cc 1b 25 3d c4 34 b8 bc fa db 89 3d
       -0.003440857 0.040309712 -0.022486098 0.0673141
0000d0 00 b7 c6 b9 40 d8 49 3d 40 9a d0 3d 0c d5 d7 bc
       -0.0003790185 0.049278498 0.10185671 -0.026346706
0000e0 88 8c 94 bc 28 b6 83 3d 7a 84 12 bd 50 94 bf bb
       -0.018133417 0.06431228 -0.03577087 -0.0058465376
0000f0 4c e6 0a 3d 7c 21 5a 3d 60 cc ec 3b 5c 63 99 bc
       0.033911034 0.05325459 0.007226512 -0.018724136

fc1.weight f4 [64, 1024]
000000 bc 43 95 bc 8e 25 e1 3c 58 0f b1 bb 88 e1 f7 3c
       -0.018220775 0.027483728 -0.0054034404 0.030258909
000010 c0 dc 14 bc 14 c5 a1 3c d2 51 d9 3c b4 6a 51 bc
       -0.009085834 0.019747294 0.026528273 -0.012781788
000020 64 77 36 bc d4 83 10 3c fa 59 bc 3c 20 bf 61 bb
       -0.011136863 0.008820493 0.022992123 -0.0034446195
000030 2a dd a5 bc 32 97 fc bc 1c ed 39 bc d0 a4 2a bc
       -0.02024706 -0.030833814 -0.011348035 -0.010415271
000040 b0 4f 89 3b b0 3c 7f 3b 40 8f 23 bb 5c cb fa bc
       0.0041904077 0.0038946085 -0.002495721 -0.030614547
000050 60 42 7f 3b c0 1e 73 3a 48 13 bd 3b 5c 2a bd bc
       0.0038949475 0.00092742965 0.005770121 -0.023091488
000060 c2 61 8d 3c 98 70 f0 bb 40 fe a4 ba 64 cd e3 bc
       0.017258529 -0.007337641 -0.001258798 -0.027807899
000070 0c c4 39 bc d8 16 52 3c 6e 90 b8 3c cc 9a 1a bc
       -0.011338245 0.012822829 0.022529807 -0.0094363205
000080 f0 1c 96 bc a4 24 23 bc ba 2c b6 bc 28 4d cf bb
       -0.018324345 -0.009957466 -0.022238124 -0.0063263364
000090 1c 18 95 bc da 1a e2 bc 6c 54 67 3c 26 df bf 3c
       -0.018199973 -0.027600694 0.014119249 0.023421835
0000a0 08 83 a9 bb fa 20 9b bc 86 f4 bf 3c 2e bc bb bc
       -0.005173091 -0.018936623 0.023432028 -0.02291688
0000b0 40 4c fc 3b ca c2 a9 3c 40 31 b9 bc 40 81 ad 3c
       0.0076995194 0.020722765 -0.022606492 0.021179795
0000c0 46 e0 8c 3c fa c7 cd bc e2 9d cf bc fa 32 f3 bc
       0.017196786 -0.02511977 -0.02534384 -0.029687393
0000d0 0e 45 a5 3c aa 17 a7 3c d8 a3 cc 3b ac e4 80 3c
       0.02017453 0.020397026 0.0062451176 0.01573404
0000e0 52 a6 ad 3c 70 b0 fb bb 94 76 fe bc d0 a0 ee 3c
       0.021197472 -0.007680945 -0.031062402 0.029129416
0000f0 b4 b3 ce bc 80 5f 89 39 e0 79 37 bb 00 5b 27 3c
       -0.025232174 0.0002620183 -0.0027996227 0.010214567
000100 7a d9 9a bc c4 32 9f bc 80 b8 b1 3a c8 b7 89 bb
       -0.018902529 -0.019433387 0.0013559014 -0.0042028166
000110 60 43 ce 3c 30 00 9c bc 88 73 b0 bc 60 15 5d 3b
       0.025178611 -0.019043058 -0.021539465 0.0033734664
000120 a8 d1 0c 3c 82 c9 88 bc f2 08 c8 3c bc 95 a8 3c
       0.008594908 -0.016697649 0.024418328 0.020579211
000130 5c 31 c2 3c ee d2 a4 3c d6 00 92 3c 20 61 92 ba
       0.023705177 0.02012011 0.017822664 -0.0011167862
000140 98 49 9c bb bc 2e 71 bc a8 51 65 bc a6 86 93 bc
       -0.0047695152 -0.014720615 -0.013996519 -0.018008541
000150 f8 34 28 bc 50 92 92 3b e6 12 ff bc 18 ef ac 3c
       -0.010266535 0.004473008 -0.031136941 0.021110103
000160 08 a9 b4 3c b0 6e 1c bc c0 6f 86 ba c6 48 e4 bc
       0.022053257 -0.009547874 -0.0010256693 -0.027866732
000170 1e 27 e8 3c f4 27 ed bc c8 ce 87 bb 08 43 e7 3b
       0.028338965 -0.028949715 -0.0041445233 0.0070575513
000180 98 1c 47 3c b8 48 24 3c f8 d1 0e 3c 8c 6b c7 3c
       0.012152813 0.010027103 0.008717053 0.024343275
000190 f8 ec fd 3b bc 7b c7 bc f6 75 a8 3c c0 83 7f bb
       0.007749196 -0.024350993 0.02056406 -0.0038988441
0001a0 fc fe fa bc 90 81 14 3c 40 1c 49 bc 3a 91 b9 3c
       -0.030639164 0.009064093 -0.012274802 0.022652257
0001b0 36 04 a1 3c 66 cd cd bc e0 bb 2c 3c 10 90 90 3c
       0.019655328 -0.025122356 0.01054284 0.01764682
0001c0 4c 55 96 3c 60 6a 8a bc 70 e0 fe 3b e4 ce a4 bc
       0.01835122 -0.016896427 0.00777822 -0.020118184
0001d0 ce d5 fe 3c a0 fd d7 ba a4 83 f1 bc 60 e4 ea bb
       0.03110781 -0.0016478784 -0.029481716 -0.0071683377
0001e0 0a f5 91 3c 78 48 37 3c 60 37 0f bc c4 37 fa bc
       0.017817039 0.0111867115 -0.00874123 -0.03054417
0001f0 9c 6e 14 3c 16 3f 87 bc 80 35 27 bc 74 84 72 3c
       0.009059574 -0.016509574 -0.0102056265 0.014802087
000200 08 7d 53 bc c0 a9 5b ba 2c 3a b4 3c e0 73 80 bb
       -0.012908228 -0.0008379482 0.022000395 -0.0039200634
000210 20 d6 9d 3a 06 48 9a bc 94 55 de bc ae 68 cb bc
       0.0012041964 -0.018833172 -0.027140416 -0.024830189
000220 88 62 81 3c 58 0f 60 3c 60 8a af bc a0 fc ee 3a
       0.015794054 0.013675533 -0.021428287 0.0018233247
000230 40 0f 3f 3b 84 b8 77 3c 80 c9 fa 3b 2a 5b c9 3c
       0.0029153377 0.015119676 0.007653415 0.024579603
000240 3c 08 3f 3c e0 57 1c bb 4a 74 ac 3c e6 57 b0 3c
       0.011659678 -0.0023856089 0.021051545 0.021526288
000250 20 2b cc 3a dc 2f 45 3c 6c e0 8d bc 18 d4 c5 3c
       0.0015576817 0.012035336 -0.017318927 0.024148986
000260 20 37 99 bc 5c d4 9f bc 76 c8 9c bc 90 3d 30 bc
       -0.018703043 -0.01951044 -0.019138556 -0.010756865
000270 dc b9 47 3c b4 2b d1 3c 86 af e9 bc 1e 31 c5 bc
       0.012190308 0.025533535 -0.028526079 -0.024071272
000280 4a ea b2 3c a0 a9 a8 bc 04 5f a2 bc 78 aa a9 3c
       0.021840233 -0.020588696 -0.019820698 0.020711169
000290 c8 03 02 3c 48 06 af 3b 00 ec 84 3b bc d9 3a 3c
       0.007935472 0.005341325 0.0040564537 0.011404451
0002a0 b8 fc 66 3c b0 3e 68 bc 18 2a a5 3c 7c db ab 3c
       0.014098339 -0.014175102 0.020161673 0.020978682
0002b0 14 5d 9a bc c0 d1 32 3c 10 22 53 3c a0 52 37 bb
       -0.018843211 0.010914266 0.012886539 -0.0027972832
0002c0 e4 42 44 bc 90 1a b6 3b 68 f7 77 3c 80 e1 50 bb
       -0.011978839 0.0055573657 0.01513467 -0.003187269
0002d0 24 94 2a bc e0 f6 a3 3a 38 cd f3 bb 24 f0 53 3c
       -0.010411296 0.0012509488 -0.0074402355 0.012935672
0002e0 3c e4 79 3c 78 27 75 bc be 64 f3 bc be 05 e5 bc
       0.015252169 -0.014963023 -0.029711124 -0.02795684
0002f0 26 b8 a3 bc a0 87 dd bb 60 ca c5 bb 88 78 d1 bb
       -0.01998527 -0.0067605525 -0.006036088 -0.0063925423
000300 be 4a c6 bc e8 13 a2 bb 16 3c d6 3c 90 8f 43 bb
       -0.024205562 -0.0049462207 0.026151698 -0.0029840209
000310 ce 31 f3 bc 68 95 63 bc d6 fd 8b bc d0 e3 7c 3b
       -0.029686835 -0.013890602 -0.017088812 0.0038587935
000320 c4 56 af 3c a4 69 25 bc 02 7d c5 3c ce 15 bd bc
       0.021403678 -0.0100959875 0.02410746 -0.023081686
000330 7e b6 cf bc 00 5e 0d 3b 40 58 0a ba d4 e9 f8 3c
       -0.025355574 0.002157092 -0.00052774325 0.030384935
000340 2e 79 f6 bc ae 63 fa 3c 78 77 a9 bb b0 e3 aa bc
       -0.03008708 0.03056511 -0.0051717125 -0.020860523
000350 20 4c ff 3c 50 96 8e bb 00 e8 db b7 3c de 55 3c
       0.031164229 -0.0043514147 -2.6214868e-05 0.013053473
000360 b0 b8 21 bb ce c2 92 3c 9a a0 ae bc 26 e3 ee 3c
       -0.0024676733 0.017915156 -0.021316815 0.029161047
000370 d8 e6 07 3c be 9d d2 3c a4 21 c2 bc 9a 6e e4 3c
       0.0082947835 0.025709983 -0.023697682 0.02788477
000380 00 60 d8 38 b2 e6 9d bc 78 2b 90 bc 8c 25 19 3c
       0.00010317564 -0.019275043 -0.017598853 0.009347331
000390 00 21 e4 bc f6 8b fc 3c 16 f4 9c 3c 20 98 ce bc
       -0.027847767 0.030828457 0.019159358 -0.025219023
0003a0 dc 9e 44 3c f0 0e f1 bb 30 e7 4a 3c 78 44 90 bc
       0.012000766 -0.007356517 0.012384221 -0.017610773
0003b0 50 9b 67 bb b0 81 b0 bb 20 a3 f1 ba f0 57 05 bb
       -0.0035340376 -0.0053865537 -0.0018435456 -0.0020346604
0003c0 0a a8 a1 3c 84 c8 65 3c c8 1f 89 3c 3c 27 0e 3c
       0.019733448 0.014024857 0.016738787 0.008676346
0003d0 0e 01 cb bc b6 4f 89 bc 3c e5 49 3c 18 07 80 bc
       -0.024780776 -0.016761642 0.01232272 -0.015628383
0003e0 fa 20 95 bc 04 17 f1 bc 40 96 bb 3a 7a ce ff 3c
       -0.018204201 -0.02942992 0.0014311746 0.031226385
0003f0 f0 16 97 3b 80 32 62 ba b6 51 ef 3c 78 2b 89 3c
       0.0046108887 -0.0008628741 0.029213767 0.01674436

fc1.bias f4 [64]
000000 04 bf ba bc 00 12 a6 3a d0 22 e4 3b 9a e8 cc 3c
       -0.022796161 0.0012670159 0.006962158 0.025013257
000010 e8 0f 93 bc 04 4e f5 bc 3c 33 94 bc 60 59 4b 3c
       -0.01795192 -0.029944427 -0.018090837 0.012411445
000020 60 05 29 3c 60 3f b1 3b 70 0e c6 bc 28 ca 22 3c
       0.010316223 0.005409166 -0.024176806 0.009935893
000030 86 b5 cd 3c a0 fd 8a bb 32 3c 91 3c 9e 2f ee bc
       0.025110971 -0.0042416602 0.017728899 -0.02907544
000040 56 be c7 3c e0 6e e6 ba b0 b4 18 bc 80 1d d7 ba
       0.024382751 -0.0017580651 -0.009320423 -0.001641199
000050 f2 c5 87 3c 28 80 ea bb 1c 0a 6d 3c 20 16 a8 3a
       0.01657388 -0.0071563907 0.014467742 0.0012823977
000060 2e 95 bf 3c e0 b4 ce bc 20 ec 3c 3c 64 40 b2 3c
       0.023386564 -0.025232732 0.011530906 0.02175922
000070 f0 a3 54 3c d4 02 28 bc d8 a0 2e bc 50 21 2a 3b
       0.012978539 -0.0102545805 -0.010658465 0.0025959797
000080 ee e7 f6 bc 90 f9 21 bc a2 bd b8 3c 7e ba be bc
       -0.03013989 -0.0098861605 0.022551361 -0.023282286
000090 c0 28 36 ba c0 7b 87 ba ac ec 7b bc 10 ab 57 3b
       -0.0006948821 -0.0010336563 -0.015376251 0.0032908358
0000a0 90 8b 9a bb c0 2b c6 ba f6 40 f4 3c f4 e2 45 3c
       -0.004716344 -0.001511924 0.029816132 0.012078036
0000b0 f2 bb 97 bc 70 8b 80 3c 30 ab 51 bc 90 5f 9c 3b
       -0.018522236 0.015691489 -0.012797162 0.004772134
0000c0 54 61 ec 3c da c6 e5 3c 2e 0d 90 3c 9c 59 39 3c
       0.028855003 0.028048921 0.01758441 0.011312868
0000d0 ba 1a 9d 3c c0 3f e8 3c 0a 4a b5 3c b6 97 82 3c
       0.019177783 0.02835071 0.022130031 0.015941482
0000e0 04 29 14 bc b8 08 3e 3c 1a aa e3 bc d8 2d d6 bb
       -0.009042982 0.011598758 -0.027791072 -0.0065362267
0000f0 0e b2 9a bc 50 7c 2b 3b b4 39 0a bc c8 05 99 3b
       -0.018883731 0.0026166625 -0.008436609 0.0046698786

fc2.weight f4 [1, 64]
000000 20 33 c7 3b e4 75 6d bd d4 f3 22 bd c0 85 41 3b
       0.0060790926 -0.057973757 -0.039783314 0.0029529184
000010 8c 3f 22 bd 60 9b de 3c 4c bc 5a bd 40 89 e9 bb
       -0.039611384 0.027173698 -0.05340223 -0.007126957
000020 08 72 85 bc b0 48 fd bd c0 c5 ab bb a0 4f db bb
       -0.016289726 -0.1236738 -0.0052420795 -0.0066928416
000030 80 17 73 bb ac 5e c2 3d e8 51 f0 bc 9c 6c de bd
       -0.0037092865 0.094907135 -0.029335931 -0.10860559
000040 00 bf ab 3d 60 1f f0 3b 84 90 c7 3d d8 1d 7e bd
       0.0838604 0.007327959 0.09744361 -0.06204018
000050 b0 50 76 bc 56 e2 ac 3d 1c 34 23 3d 98 0e c2 bc
       -0.015033886 0.08441608 0.039844617 -0.0236886
000060 c8 4d be bc 4e a9 f5 3d e8 f8 96 bd be 4d c1 bd
       -0.023230448 0.11995183 -0.07371694 -0.09438656
000070 80 b7 a8 bd e8 21 f3 bc a6 8d 99 bd 48 bd a2 3c
       -0.08238125 -0.029679254 -0.074977204 0.019865647
000080 b0 a8 53 3c f2 d3 8e 3d b8 8e ff bd 46 df c5 bd
       0.012918636 0.06974019 -0.12478393 -0.09661727
000090 08 b9 fa bd 90 0a f2 bc 18 5f aa 3d a0 1a a4 3c
       -0.12242323 -0.029546052 0.08318919 0.020032227
0000a0 d0 e5 33 3c f0 04 cd 3d 24 b8 f2 3d 54 7b 80 3d
       0.010980085 0.100107074 0.11851528 0.06273523
0000b0 80 96 39 3c 7a e7 85 bd a8 28 92 bd 4c 24 43 bd
       0.011327386 -0.06538291 -0.07136661 -0.047642037
0000c0 b8 37 ac 3c fc a9 09 3d 50 d6 44 bd 3c c8 b3 bd
       0.021022663 0.033609375 -0.048055947 -0.08778426
0000d0 18 0d c5 3d da 95 e0 bd 0e f4 e1 bd 78 b1 f8 3d
       0.09621638 -0.10966082 -0.11032878 0.121432245
0000e0 60 a2 13 3c 62 3e ca 3d f6 d6 b0 3d 98 f0 e9 bd
       0.009010881 0.0987518 0.086347505 -0.11422843
0000f0 e4 d5 70 bd ea 4a e1 3d 72 ce 90 3d b0 6b ce 3c
       -0.058797732 0.11000617 0.07070626 0.025197834
