models/crispr_cnn_real_day9.pth (torch, 161923 bytes, 7 tensors)

conv1.weight f4 [32, 4, 3]
0.122772485 0.2930593 -0.05340675 -0.02727076 0.051632266 0.09798274 0.084682845 -0.11620479
-0.116498195 0.062875435 -0.12769496 -0.023332734 0.026843658 -0.03351382 0.28776997 0.034373093
0.015345287 0.20686148 0.1715657 -0.16301186 0.25517383 0.07538917 0.2176189 0.26603898
0.09876975 0.205106 -0.21577264 -0.19261771 0.16928478 -0.26871333 0.15241101 -0.24367322
0.24391842 0.06415551 -0.28745753 0.284498 -0.08004143 0.13655898 -0.12693393 0.19129086
-0.17950647 0.11220121 -0.15088347 0.08821127 -0.21286073 -0.18278633 0.030256443 0.16211186
0.23995869 0.12948593 0.27207163 0.06964019 -0.1178336 -0.19946125 0.20374969 0.2749089
-0.1089604 -0.10058415 -0.111767314 0.09315476 0.29125193 -0.18222687 -0.29166195 -0.10401709
0.26837865 -0.14473176 -0.09093032 0.15992025 0.28179136 0.18112817 -0.17887779 -0.20884305
0.10003529 -0.28250638 -0.12461596 0.104468085 0.080632634 -0.1404361 0.15170301 -0.17936303
0.06850046 -0.0737797 0.15472971 -0.2666232 0.28238723 0.032674395 0.08057572 0.1378022
0.003748904 0.16123082 0.1547748 0.16034812 0.19223757 0.28146765 0.14619662 -0.014966558
0.17567731 0.20433274 0.0866538 0.06042576 0.114866026 -0.23315857 -0.058733284 -0.21621163
0.20362154 0.13482554 0.13330843 0.24150471 0.14462031 -0.17005311 -0.067015685 0.04181943
-0.05570713 0.259148 0.004422122 -0.1856974 0.09343289 0.025471443 0.055552762 -0.15117179
-0.087228306 0.07203921 -0.2752155 -0.29412597 -0.201347 -0.07637161 -0.06993665 0.20118235
-0.078528956 -0.06020123 -0.029478062 0.18777864 0.008143425 -0.14804196 0.2729876 -0.19091474
0.22727236 0.21455076 -0.26397836 -0.12570514 -0.07254363 0.25915337 0.23541172 -0.104998566
-0.002941411 -0.10019841 0.18571903 0.2820796 0.21249336 0.1781918 -0.19837998 -0.21287663
-0.029558484 0.13869187 0.25639337 0.045557767 -0.0238865 0.0044351434 -0.111945264 0.09562117
-0.25948393 -0.26590762 -0.22641154 0.14986855 0.274708 0.01772652 0.29048753 -0.11415209
-0.032481123 0.18762547 -0.1708019 -0.15500559 0.22772962 -0.047844242 -0.07511251 -0.041666273
0.09480783 -0.200049 0.25252342 0.16044992 -0.17481254 0.11963052 -0.00986226 -0.052779052
0.21006873 -0.27788103 0.20603074 -0.12282275 -0.13542315 -0.27800632 -0.13208391 -0.07612541
-0.042335972 -0.23158953 0.11464427 0.09112953 0.0334535 0.06601404 0.24836622 -0.12674731
0.28058746 -0.089829385 0.05977293 0.25657645 0.06894753 -0.16475707 0.08320605 -0.04465581
-0.23563974 -0.23821642 0.040971544 0.19617417 -0.23679115 -0.10509059 -0.055944543 0.015070614
0.16793118 -0.018986633 0.0069193067 -0.29915124 -0.064745836 -0.22297907 0.061423328 0.12676321
0.057670973 0.07935055 -0.076699495 -0.09032126 -0.14897765 -0.20438704 -0.21893077 0.2172822
-0.18082552 -0.16090536 -0.28518283 0.27480468 -0.12705132 -0.18054841 -0.0707506 -0.085400194
0.20250456 -0.2765699 0.11581185 0.25269294 0.0037644939 -0.12035893 0.12365136 -0.09225196
-0.11255835 0.16325071 0.22047749 -0.28019506 0.11797035 0.11070871 0.12575288 0.07178311
00000000: 2470 fb3d de0b 963e 09c1 5abd ee66 dfbc
00000010: 5b7c 533d 2dab c83d 336e ad3d c7fc edbd
00000020: 9b96 eebd d6c4 803d 78c2 02be 4a24 bfbc
00000030: 3be7 db3c ca45 09bd 9656 933e cdca 0c3d
00000040: cc6a 7b3c 7fd3 533e ebae 2f3e 95ec 26be
00000050: 25a6 823e a365 9a3d 7dd7 5e3e 4336 883e
00000060: cb47 ca3d 4f07 523e 81f3 5cbe 943d 45be
00000070: fd58 2d3e cb94 89be a211 1c3e 7985 79be
00000080: c0c5 793e f763 833d a22d 93be b9a9 913e
00000090: c3ec a3bd 1ed6 0b3e f8fa 01be c0e1 433e
000000a0: 8bd0 37be bfc9 e53d 3281 1abe 1ca8 b43d
000000b0: 2af8 59be 572c 3bbe 5cdc f73c a700 263e
000000c0: bbb7 753e f697 043e f94c 8b3e 849f 8e3d
000000d0: be52 f1bd 923f 4cbe c2a3 503e dcc0 8c3e
000000e0: a126 dfbd 10ff cdbd 43e6 e4bd ecc7 be3d
000000f0: f91e 953e ae99 3abe b754 95be e906 d5bd
00000100: ed68 893e 9034 14be ad39 babd 22c2 233e
00000110: f546 903e aa79 393e bd2b 37be f4da 55be
00000120: 4ddf cc3d ada4 90be a736 ffbd 5df3 d53d
00000130: b922 a53d 7bce 0fbe 0958 1b3e f1aa 37be
00000140: f849 8c3d d019 97bd 7771 1e3e d682 88be
00000150: 0f95 903e 96d5 053d e204 a53d 051c 0d3e
00000160: 2cb0 753b b119 253e 497d 1e3e 4c32 243e
00000170: edd9 443e 871c 903e 91b4 153e 4b36 75bc
00000180: c1e4 333e 9a3c 513e 8c77 b13d 0081 773d
00000190: e13e eb3d 1fc1 6ebe 5092 70bd 9566 5dbe
000001a0: 2a82 503e b50f 0a3e 0182 083e 034d 773e
000001b0: 5917 143e 6722 2ebe 853f 89bd da4a 2b3d
000001c0: 292d 64bd 0caf 843e 73e7 903b 7627 3ebe
000001d0: be59 bf3d 7da9 d03c 4b8b 633d c7cc 1abe
000001e0: c1a4 b2bd 4b89 933d 0ce9 8cbe ae97 96be
000001f0: e82d 4ebe b868 9cbd f23a 8fbd bf02 4e3e
00000200: cad3 a0bd 9195 76bd fa7b f1bc 0b49 403e
00000210: 006c 053c 5098 17be 08c5 8b3e 277f 43be
00000220: 16ba 683e 32b3 5b3e 2c28 87be d9b8 00be
00000230: c191 94bd c0af 843e c50f 713e 7d09 d7bd
00000240: b0c4 40bb d334 cdbd 212d 3e3e bd6c 903e
00000250: dc97 593e e977 363e 1f24 4bbe 55fc 59be
00000260: a224 f2bc 3e05 0e3e fe45 833e c89a 3a3d
00000270: 9fad c3bc ae54 913b 8f43 e5bd 08d5 c33d
00000280: 14db 84be 0b25 88be 6dd8 67be 2477 193e
00000290: 87a6 8c3e 3537 913c c8ba 943e 92c8 e9bd
000002a0: ed0a 05bd e420 403e b1e6 2ebe c9b9 1ebe
000002b0: f431 693e 53f8 43bd 96d4 99bd 41aa 2abd
000002c0: 9c2a c23d a5d9 4cbe c04a 813e fc4c 243e
000002d0: 0f02 33be d900 f53d 5195 21bc d92e 58bd
000002e0: 421c 573e 6c46 8ebe b9f9 523e 7e8a fbbd
000002f0: 5eac 0abe d856 8ebe 0141 07be a4e7 9bbd
00000300: 7c68 2dbd ce25 6dbe 9dca ea3d 1ea2 ba3d
00000310: 8a06 093d 5e32 873d b753 7e3e 0cca 01be
00000320: 29a9 8f3e 78f8 b7bd 76d4 743d fd5d 833e
00000330: 5d34 8d3d 14b6 28be ef67 aa3d 03e9 36bd
00000340: 8b4b 71be 01ef 73be c7d1 273d e2e1 483e
00000350: 6179 72be bc39 d7bd 1b26 65bd bdea 763c
00000360: 27f6 2b3e db89 9bbc 5abb e23b 5a2a 99be
00000370: 7799 84bd a054 64be 0797 7b3d 37ce 013e
00000380: 6638 6c3d 8b82 a23d a014 9dbd 5afa b8bd
00000390: 998d 18be d64a 51be 632f 60be 3a7f 5e3e
000003a0: 532a 39be 60c4 24be 7c03 92be 33b3 8c3e
000003b0: be19 02be afe1 38be b1e5 90bd 4ce6 aebd
000003c0: 5b5d 4f3e 929a 8dbe c32e ed3d f860 813e
000003d0: bab5 763b be7e f6bd ed3c fd3d 98ee bcbd
000003e0: fe84 e6bd 322b 273e dac4 613e ba75 8fbe
000003f0: 709a f13d 40bb e23d 5dc5 003e 0603 933d

conv1.bias f4 [32]
-0.14964724 0.115749255 0.2775945 0.080697924 -0.25761968 0.028543813 0.2896019 -0.006673396
-0.2382819 0.2326463 0.22513443 -0.0052306387 0.06966761 -0.121187896 -0.04419424 -0.24949308
-0.14254823 0.16514644 0.25670862 -0.0005108393 -0.27637187 0.23859103 -0.09239614 0.20199406
-0.03689712 0.2103775 -0.1076625 -0.15540636 0.12111351 -0.23932803 0.13247786 0.025425306
00000000: 203d 19be f20d ed3d de20 8e3e f444 a53d
00000010: bae6 83be b7d4 e93c b346 943e 81ac dabb
00000020: 2c00 74be d53a 6e3e a489 663e c765 abbb
00000030: e4ad 8e3d 5c31 f8bd 0505 35bd 1d7b 7fbe
00000040: 2af8 11be 261c 293e 506f 833e d8e9 05ba
00000050: 9d80 8dbe 3551 743e 303a bdbd 88d7 4e3e
00000060: 6f21 17bd 336d 573e 287e dcbd d822 1fbe
00000070: 5c0a f83d 6812 75be 47a8 073e bb48 d03c

conv2.weight f4 [64, 32, 3]
0.04180184 -0.070692636 0.015281934 -0.004904255 0.049363583 -0.06631277 0.03100745 0.048069276
-0.06566266 0.08911581 -0.10267526 0.024069283 -0.046994254 -0.11252425 0.061644804 -0.09510026
-0.032281764 0.01491616 -0.061860606 0.11555514 0.08126592 -0.037332553 -0.067994274 -0.087011755
-0.004154253 0.08732438 0.033235773 -0.037056565 -0.016493 -0.09147098 0.05693603 -0.064185955
-0.07927224 -0.04778612 0.065582745 -0.082686305 -0.046149533 -0.03169021 -0.034008663 -0.04977024
0.06403547 0.011922535 0.06452706 0.020219637 -0.08849061 -0.06364421 0.039553396 -0.07819245
0.060441174 0.07708811 0.0018819348 -0.03730051 -0.008072001 0.0977202 -0.05971838 -0.00035444292
-0.07150066 0.02414192 -0.009273262 0.041890934 0.06519487 -0.11614223 0.08417985 0.066970594
0.008549497 0.006479838 -0.007851913 -0.025237637 -0.01276324 -0.09735473 -0.026682103 -0.0023190689
-0.031259198 0.020209327 0.0936949 0.014486595 0.025048252 -0.08572226 0.09749797 0.07696346
0.076506294 -0.034111407 -0.054063577 0.0030177291 0.10666388 0.09192157 0.097320795 0.016945694
-0.056427844 0.11159058 0.06051457 0.096603975 0.008206383 0.017792683 -0.00693573 0.08784987
-0.023015095 0.041272085 0.052049212 -0.0869871 -0.061854467 -0.0042873947 -0.0060831183 0.07590026
-0.08831426 -0.033938926 -0.094742045 -0.10526086 -0.0008813826 -0.009727523 -0.062170744 0.068503045
0.05963608 -0.06598206 0.044141408 0.03274597 0.084637046 -0.08218478 -0.072314784 -0.023215655
-0.054920953 0.050260063 -0.00624976 0.027470196 0.033504255 0.067041494 -0.04393863 0.09306414
-0.043983825 0.09616467 0.047675207 -0.040298287 0.08879725 -0.09520695 -0.08146736 0.009989408
0.11288726 0.043978345 0.0025093223 0.09196 -0.05606783 -0.078113854 -0.08789035 -0.06441493
-0.009200147 -0.06612691 -0.0384669 -0.031489633 -0.07923699 -0.08723169 0.0088276155 0.07881985
-0.06455021 0.05448151 -0.006531081 -0.04767977 0.10291 -0.13193901 0.039958034 0.025951693
-0.030359326 -0.022130208 -0.03797983 0.06804064 0.09952208 -0.05007129 0.057788182 -0.086009145
-0.044988573 0.012131331 -0.089793235 0.0328954 0.08993773 -0.008392496 -0.08949205 0.078980245
0.0023124279 -0.032982893 -0.038975272 0.071304604 0.08209989 -0.053448834 -0.09428229 -0.06251296
0.095434405 0.03318535 0.10228493 0.108258046 0.08522671 -0.03205402 -0.03334877 0.049904555
-0.08419686 -0.09666863 0.010800608 0.07735527 0.08286463 0.029065354 0.08375589 0.09758085
0.093335144 0.008557894 0.09154056 -0.008572708 -0.08983695 -0.10503049 0.10121586 -0.07337255
-0.058238983 0.0110094 0.10523285 0.04614116 0.082891084 0.042061027 -0.044571258 0.043460812
0.09639587 -0.0062691174 -0.08124748 0.029012002 -0.047796614 0.08845129 0.056494646 -0.033488583
0.049565773 0.07885748 -0.058420777 0.05588968 -0.01599343 -0.039474353 -0.010407528 -0.041808587
0.11284587 0.061312642 -0.03537981 -0.027112052 0.02425422 0.07825977 -0.040628932 -0.023867765
-0.08392825 0.082936354 0.02625613 -0.06883419 0.08333512 0.0012215428 0.019830925 0.032915555
-0.035860624 -0.08337437 -0.081500635 -0.08492517 -0.0635841 0.0032521829 -0.011266959 -0.07731218
00000000: 6838 2b3d 4dc7 90bd 1461 7a3c dfb3 a0bb
00000010: 7831 4a3d fdce 87bd 5603 fe3c 4ae4 443d
00000020: 257a 86bd 5a82 b63d 6847 d2bd f22c c53c
00000030: 0c7d 40bd 1d73 e6bd 437f 7c3d edc3 c2bd
00000040: e239 04bd e962 743c 8c61 7dbd 2ca8 ec3d
00000050: bf6e a63d 05ea 18bd 9540 8bbd 3833 b2bd
00000060: 6620 88bb 20d7 b23d 3c22 083d a0c8 17bd
00000070: 541c 87bc 2355 bbbd c135 693d ed73 83bd
00000080: 7c59 a2bd 61bb 43bd 3f50 863d 7057 a9bd
00000090: 4b07 3dbd 98cd 01bd ab4c 0bbd e1db 4bbd
000000a0: 0725 833d bc56 433c c326 843d a7a3 a53c
000000b0: 913a b5bd e557 82bd be02 223d 5d23 a0bd
000000c0: 2a91 773d 5fe0 9d3d 41ab f63a 6bc8 18bd
000000d0: 6d40 04bc 8721 c83d 439b 74bd 86d4 b9b9
000000e0: f06e 92bd 47c5 c53c e1ee 17bc d495 2b3d
000000f0: e384 853d fadb edbd 7c66 ac3d e127 893d
00000100: 3113 0c3c d254 d43b 4fa5 00bc 29bf cebc
00000110: e91c 51bc eb61 c7bd 6d94 dabc 85fb 17bb
00000120: a509 00bd 088e a53c 1de3 bf3d 2f59 6d3c
00000130: fe31 cd3c 278f afbd 04ad c73d 059f 9d3d
00000140: 55af 9c3d 67b8 0bbd c571 5dbd 18c5 453b
00000150: 9872 da3d 6041 bc3d 2050 c73d b2d1 8a3c
00000160: e220 67bd 9a89 e43d 20de 773d 4ed8 c53d
00000170: 1174 063c f6c1 913c 1f45 e3bb a2ea b33d
00000180: 278a bcbc eb0c 293d 8e31 553d 4b26 b2bd
00000190: 1c5b 7dbd 467d 8cbb e554 c7bb 9871 9b3d
000001a0: 1bde b4bd 8b03 0bbd 1e08 c2bd 0193 d7bd
000001b0: 960c 67ba 3060 1fbc c0a6 7ebd 534b 8c3d
000001c0: f644 743d 9a21 87bd 9fcd 343d a320 063d
000001d0: 3056 ad3d 7e50 a8bd c619 94bd c22e bebc
000001e0: cbf4 60bd 7fdd 4d3d c9ca ccbb 2d09 e13c
000001f0: c23b 093d 0d4d 893d fef8 33bd 6998 be3d
00000200: 6228 34bd fcf1 c43d 1447 433d d10f 25bd
00000210: 55db b53d ddfb c2bd 5cd8 a6bd 9daa 233c
00000220: 7031 e73d a322 343d 7173 243b 8655 bc3d
00000230: 62a7 65bd 28fa 9fbd dbff b3bd faeb 83bd
00000240: 37bc 16bc 8c6d 87bd 788f 1dbd 46fb 00bd
00000250: 0147 a2bd 87a6 b2bd b4a1 103c 4d6c a13d
00000260: e732 84bd 0128 5f3d ae02 d6bb dd4b 43bd
00000270: 7ac2 d23d 051b 07be 09ab 233d a598 d43c
00000280: 1fb4 f8bc 694a b5bc bd90 1bbd e458 8b3d
00000290: 3bd2 cb3d 8e17 4dbd 4db3 6c3d 9025 b0bd
000002a0: f045 38bd 7dc2 463c 84e5 b7bd 54bd 063d
000002b0: 4631 b83d ae80 09bc 9c47 b7bd 65c0 a13d
000002c0: 1a8c 173b 1219 07bd 89a4 1fbd 2608 923d
000002d0: fd23 a83d 2aed 5abd 1317 c1bd cb06 80bd
000002e0: 1d73 c33d 5ded 073d c37a d13d 65b6 dd3d
000002f0: 578b ae3d 134b 03bd b898 08bd b868 4c3d
00000300: 676f acbd 34fa c5bd 09f5 303c 716c 9e3d
00000310: eeb4 a93d 771a ee3c 3588 ab3d 78d8 c73d
00000320: 7f26 bf3d 6936 0c3c 9e79 bb3d 8b74 0cbc
00000330: 6ffc b7bd 3a1a d7bd 434a cf3d 5944 96bd
00000340: 008c 6ebd c560 343c 5284 d73d 83fe 3c3d
00000350: cdc2 a93d 2f48 2c3d 5a90 36bd f703 323d
00000360: 336b c53d 2b6d cdbb 1465 a6bd 94aa ed3c
00000370: 62c6 43bd f325 b53d ee66 673d 532b 09bd
00000380: 7b05 4b3d 0880 a13d a04a 6fbd 94ec 643d
00000390: a704 83bc dcaf 21bd 5684 2abc 7b3f 2bbd
000003a0: bc1b e73d f722 7b3d 6bea 10bd 181a debc
000003b0: c9b0 c63c a946 a03d 866a 26bd 5586 c3bc
000003c0: 93e2 abbd 89da a93d 1817 d73c f1f8 8cbd
000003d0: 9aab aa3d 2d1c a03a 7774 a23c 76d2 063d
000003e0: 97e2 12bd 2fc0 aabd cee9 a6bd 3fed adbd
000003f0: 6138 82bd 9322 553b 0d99 38bc d955 9ebd

conv2.bias f4 [64]
-0.020773623 0.092996635 -0.0646595 0.02767326 -0.08546772 0.037850432 0.087040596 0.029006366
0.087928034 -0.06360862 0.07421718 0.0432021 -0.05148823 -0.05898568 0.015958672 -0.050004203
0.08506935 -0.08909417 0.03841839 0.03393835 0.09087208 0.035855483 0.090905115 -0.021711895
0.071005456 0.020851819 -0.085785516 0.07513204 -0.016535042 0.10097852 -0.029863888 0.0063770395
0.018236306 0.0032756662 0.014660671 -0.07642185 0.04372159 0.09300737 -0.040516425 0.050957277
0.021661026 -0.09361039 0.045352187 0.036619835 -0.0017055784 0.042393222 -0.009078213 -0.005239273
-0.07291374 -0.039384365 -0.07048305 0.045126542 -0.023742536 -0.028810475 0.027571723 -0.0711949
0.02286367 0.08038969 0.095720105 0.004952924 0.048687898 -0.01581276 -0.087960616 0.009991386
00000000: 722d aabc 0575 be3d 336c 84bd 08b3 e23c
00000010: b309 afbd 0e09 1b3d 5742 b23d c29e ed3c
00000020: 9d13 b43d 3c45 82bd 2dff 973d aff4 303d
00000030: 52e5 52bd f89a 71bd c3bb 823c 35d1 4cbd
00000040: d738 ae3d 0177 b6bd 9a5c 1d3d f002 0b3d
00000050: 241b ba3d 33dd 123d 762c ba3d 25dd b1bc
00000060: 4f6b 913d 6fd1 aa3c 51b0 afbd d4de 993d
00000070: 7f74 87bc d4cd ce3d 1da5 f4bc 7cf6 d03b
00000080: 4e64 953c 8fac 563b 5033 703c 0f83 9cbd
00000090: 6915 333d a67a be3d 8df4 25bd 94b8 503d
000000a0: 7772 b13c ceb6 bfbd 37c3 393d aefe 153d
000000b0: b78d dfba 84a4 2d3d c9bc 14bc 35ae abbb
000000c0: cd53 95bd 8051 21bd 6b59 90bd 9cd6 383d
000000d0: b57f c2bc f203 ecbc 18de e13c a2ce 91bd
000000e0: 974c bb3c 5aa3 a43d e708 c43d 234c a23b
000000f0: f66c 473d c389 81bc b224 b4bd e9b2 233c

fc1.weight f4 [64, 512]
-0.018768962 0.021787768 -0.0426567 -0.036970347 -0.036907855 -0.06115579 -0.05787921 -0.04083574
-0.016840626 0.015038203 0.04448723 0.039792586 0.012912668 0.010632592 0.044192567 0.0032271564
0.028090289 0.029913612 -0.03485043 0.027438212 -0.027107054 -0.027514458 -0.03656276 0.025229609
0.003896243 0.029901981 -0.0020731385 0.028377026 -0.029172657 0.009928868 -0.026181668 -0.017189909
0.03996359 0.038024474 -0.014526208 -0.02659211 0.050131675 -4.6109086e-05 0.04773495 0.030715942
0.030007547 0.018653786 -0.015015072 -0.022647865 -0.014233685 -0.0004640918 -0.020805279 0.039336402
-0.014313066 0.008013694 0.0061644013 0.02159167 0.006236367 -0.039612595 -0.012505719 0.03782874
-0.005941502 -0.021449126 -0.015035733 -0.020211682 -0.021965468 0.029053736 -0.019199261 0.038762826
0.009070954 0.00239188 0.010911722 0.033453967 -0.016686434 -0.031580232 0.016325291 -0.012369256
0.009668115 0.012893834 0.005410019 -0.04501692 -0.001966463 -0.017467804 -0.031563006 -0.045456648
0.0060182973 0.012171663 -0.00029293497 0.022738678 0.02434838 0.036962364 -0.03337487 0.040946256
0.03811557 0.008082034 0.021778442 0.04754377 -0.02394841 0.015688054 0.010123883 0.015521044
0.024070093 0.021424064 -0.0009246644 0.03517675 0.0010583475 0.0057831937 -0.0076463204 -0.004466635
-0.017835822 0.0036000859 -0.014982155 0.007902098 0.0149852745 -0.025857937 0.04491978 0.041611727
0.028541917 -0.0015011422 0.035629164 0.008503427 -0.02133877 -0.012347545 -0.0044509983 -0.02141032
0.0033533566 -0.03196026 -0.035469215 0.04303208 -0.019855956 0.03144581 0.0014372132 0.043157887
0.001175068 0.031398047 -0.022357648 -0.024957934 -0.01661079 -0.021590987 -0.0014086459 -0.050283924
-0.032167934 -0.037036348 0.0030459391 -0.015562325 -0.032205995 -0.004892478 0.041352 -0.008655036
0.019653887 0.038986832 -0.029603392 -0.014768565 -0.034212656 -0.005931608 0.047415793 -0.026912276
-0.028547037 -0.042780552 -0.022692777 0.027572496 -0.022515694 -0.029970782 -0.044557095 0.019582704
-0.015015511 0.04723553 0.04113418 0.0029310056 -0.011284346 -0.020941837 -0.021281162 -0.028769812
0.022746453 0.035168413 -0.036802698 0.003427675 -0.01304454 -0.03712898 0.0462871 -0.008370279
-0.014637197 0.031178085 -0.01756058 0.0044758194 0.043834925 0.036105346 0.03255382 -0.041194774
0.03480714 -0.0042319633 0.030133873 0.020781888 0.020477334 0.0256452 0.036576737 0.04426852
-0.013503586 0.045239795 0.01847883 -0.0017615698 0.02558225 -0.015539175 0.020193947 0.02136783
0.03667849 -0.024548575 -0.010476688 0.022397662 0.0090399105 -0.048998553 -0.012129323 -0.017837748
0.0031796934 0.028072897 0.055175368 0.002601262 -0.0030992085 0.005844505 0.009825588 -0.01527947
-0.0017774464 0.004140857 0.01767404 -0.003566079 0.033759303 0.04219946 0.018880947 0.053951554
0.0050631287 0.043509703 -0.0101258 0.006598811 -0.0084972065 0.040690836 0.0011272526 0.030995872
-0.0039616255 0.013406196 0.005785607 -0.04593848 0.046404228 0.024338583 0.04862873 -0.034323316
0.032981522 0.008538886 -0.01786761 -0.0101620015 -0.028432623 -0.033772215 -0.010674077 0.042351075
0.04138201 -0.019599238 -0.03276313 -0.0273478 -0.0036053453 0.02103017 0.021756686 -0.011611369
00000000: 5ec1 99bc 437c b23c cbb8 2ebd 386e 17bd
00000010: b12c 17bd 7e7e 7abd c012 6dbd 6043 27bd
00000020: 5af5 89bc cc62 763c 3e38 363d 8dfd 223d
00000030: a88f 533c 5334 2e3c 4403 353d b37e 533b
00000040: 9b1d e63c 640d f53c 53bf 0ebd 1ac6 e03c
00000050: 9d0f debc 0066 e1bc d5c2 15bd 53ae ce3c
00000060: 1c58 7f3b 00f5 f43c 7edd 07bb f076 e83c
00000070: 7ffb eebc b1ac 223c f07a d6bc dad1 8cbc
00000080: ddb0 233d 8dbf 1b3d 55ff 6dbc b2d7 d9bc
00000090: df56 4d3d 4165 41b8 b985 433d 00a0 fb3c
000000a0: 63d2 f53c d3cf 983c c701 76bc 0488 b9bc
000000b0: 6734 69bc 5951 f3b9 d56f aabc 351f 213d
000000c0: 5a81 6abc de4b 033c bffe c93b 04e1 b03c
000000d0: 705a cc3b d140 22bd cae4 4cbc 4ff2 1a3d
000000e0: eeb0 c2bb 14b6 afbc 6f58 76bc f892 a5bc
000000f0: edf0 b3bc 1a02 ee3c c547 9dbc c5c5 1e3d
00000100: 579e 143c 16c1 1c3b 14c7 323c 0707 093d
00000110: fdb1 88bc 465a 01bd 9ebc 853c 6ba8 4abc
00000120: 0367 1e3c a940 533c 8746 b13b a963 38bd
00000130: c6df 00bb a418 8fbc 3648 01bd c030 3abd
00000140: 2335 c53b a86b 473c 1195 99b9 7746 ba3c
00000150: 4176 c73c d965 173d 16b4 08bd 43b7 273d
00000160: 121f 1c3d 826a 043c b468 b23c 42bd 423d
00000170: 752f c4bc 3c84 803c a5de 253c fa4b 7e3c
00000180: a52e c53c 8581 af3c 2d65 72ba 7f15 103d
00000190: 40b8 8a3a f280 bd3b fc8d fabb da5c 92bb
000001a0: 6e1c 92bc 6bef 6b3b b677 75bc cd77 013c
000001b0: cc84 753c 06d4 d3bc cefd 373d 0f71 2a3d
000001c0: bdd0 e93c f9c1 c4ba e3ef 113d f551 0b3c
000001d0: a5ce aebc 5b4d 4abc aed9 91bb b264 afbc
000001e0: fdc3 5b3b c3e8 02bd 2b48 11bd 6842 303d
000001f0: f5a8 a2bc 52cd 003d df60 bc3a 53c6 303d
00000200: bd04 9a3a 3d9b 003d 6327 b7bc 9574 ccbc
00000210: 5a13 88bc 95df b0bc 50a2 b8ba 84f6 4dbd
00000220: 86c2 03bd 6db3 17bd 619e 473b 1ff9 7ebc
00000230: 6fea 03bd 1551 a0bb b760 293d dacd 0dbc
00000240: 3001 a13c a8b0 1f3d d082 f2bc daf7 71bc
00000250: 9222 0cbd ef5d c2bb 1037 423d 2277 dcbc
00000260: 7adb e9bc a93a 2fbd 34e6 b9bc b7df e13c
00000270: d572 b8bc 4985 f5bc 8081 36bd e86b a03c
00000280: 9e03 76bc 0b7a 413d 507c 283d 1d16 403b
00000290: fae1 38bc 378e abbc d555 aebc abae ebbc
000002a0: c556 ba3c c10c 103d 6dbe 16bd d8a2 603b
000002b0: c4b8 55bc 8f14 18bd 8b97 3d3d 7f23 09bc
000002c0: dbd0 6fbc 2f69 ff3c 35db 8fbc e5a9 923b
000002d0: 408c 333d 33e3 133d 2857 053d dabb 28bd
000002e0: ee91 0e3d 48ac 8abb 50db f63c c73e aa3c
000002f0: 15c0 a73c e215 d23c 7dd1 153d e852 353d
00000300: 253e 5dbc 5d4d 393d ea60 973c 79e4 e6ba
00000310: de91 d13c 0698 7ebc c76d a53c 960b af3c
00000320: 2f3c 163d 181a c9bc 6aa6 2bbc 4d7b b73c
00000330: 221c 143c b5b2 48bd 11ba 46bc 7820 92bc
00000340: 6762 503b 22f9 e53c 91ff 613d ef79 2a3b
00000350: 171c 4bbb 4383 bf3b 81fb 203c be56 7abc
00000360: 34f9 e8ba 07b0 873b 26c9 903c e1b4 69bb
00000370: 3247 0a3d 57d9 2c3d 37ac 9a3c 4efc 5c3d
00000380: 9ae8 a53b 3b37 323d afe6 25bc d73a d83b
00000390: de37 0bbc 6fab 263d 52c0 933a 0eeb fd3c
000003a0: 86d0 81bb a9a5 5b3c 3095 bd3b fd29 3cbd
000003b0: 5c12 3e3d b561 c73c eb2e 473d 9b96 0cbd
000003c0: a217 073d afe6 0b3c 185f 92bc 867e 26bc
000003d0: 88eb e8bc bc54 0abd 53e2 2ebc 5278 2d3d
000003e0: 2f80 293d 958e a0bc a232 06bd 7e08 e0bc
000003f0: a847 6cbb 7747 ac3c 143b b23c 9d3d 3ebc

fc1.bias f4 [64]
0.0052929367 -0.030420937 -0.0041745524 -0.025178771 -0.041258574 0.032004233 -0.0181686 -0.02352309
0.010377972 0.011630476 0.0010225658 0.019917274 0.0018989308 0.008570384 -0.015683062 0.039340224
0.018337686 -0.008800342 0.042918917 -0.014908273 -0.0059757032 0.046245072 0.018870832 0.02764961
-0.00891134 -0.02186589 0.017855298 -0.01932467 -0.02658561 0.027785378 -0.012890344 -0.02906609
-0.022288015 -0.040927846 0.018206978 -0.017255716 -0.023269031 -0.0319033 -0.048084892 -0.0031126766
0.008387072 -0.029752834 -0.043468263 0.0053973407 -0.020645585 0.014995793 0.010136518 0.038762257
0.0031525923 -0.029936315 0.025538165 -0.016997775 0.029444814 -0.005396225 0.047512066 -0.0040090075
0.030235458 0.03238271 0.01879577 0.01548102 0.035239413 -0.0114429835 -0.0352398 0.04624304
00000000: 5f70 ad3b 5435 f9bc afca 88bb b643 cebc
00000010: c0fe 28bd df16 033d 51d6 94bc 7fb3 c0bc
00000020: 5f08 2a3c c18d 3e3c 9d07 863a 8d29 a33c
00000030: 8be5 f83a cc6a 0c3c c479 80bc 3723 213d
00000040: ea38 963c 4f2f 10bc bfcb 2f3d d441 74bc
00000050: d5cf c3bb 796b 3d3d 0197 9a3c 6f81 e23c
00000060: de00 12bc 1820 b3bc 4645 923c c54e 9ebc
00000070: 11ca d9bc 299e e33c 0532 53bc 021c eebc
00000080: 5b95 b6bc f5a3 27bd cd26 953c dc5b 8dbc
00000090: b29e bebc 09ad 02bd aaf4 44bd 0cfe 4bbb
000000a0: ee69 093c 37bc f3bc c70b 32bd 2ddc b03b
000000b0: ee20 a9bc eab0 753c a313 263c 2cc5 1e3d
000000c0: b99b 4e3b 013d f5bc 6a35 d13c eb3e 8bbc
000000d0: 4036 f13c d1d2 b0bb 039c 423d fe5d 83bb
000000e0: 5ab0 f73c bca3 043d 96f9 993c 1ba4 7d3c
000000f0: 3457 103d 5a7b 3bbc 9c57 10bd 5869 3d3d

fc2.weight f4 [1, 64]
0.10194369 -0.0032005697 0.11430052 -0.07674659 0.0081334105 -0.019294169 -0.032027658 0.013243686
-0.0766855 0.027398845 -0.04465091 -0.0963318 -0.10397052 -0.12216089 0.08894141 -0.03528215
-0.120822325 -0.005009553 0.1017441 0.009390142 0.022649119 0.1135443 -0.0047647925 0.10937661
-0.10700952 -0.03804166 0.030214872 -0.05679262 0.036492746 0.0872753 -0.104536936 -0.020535292
-0.08596358 -0.060937677 -0.11930127 -0.01888391 0.019018905 0.038243327 -0.080461204 -0.07329611
-0.008962984 0.04490557 -0.111459285 0.07132391 0.021174612 -0.09625525 0.07119967 0.034937218
-0.048605453 0.01103189 0.1261182 -0.10170678 0.05023641 -0.06824151 0.038700175 -0.053456552
-0.036910813 0.06054279 0.08213301 -0.06351982 0.12839861 -0.051832274 -0.08752076 0.119367644
00000000: dac7 d03d a6c0 51bb 6416 ea3d 512d 9dbd
00000010: ff41 053c ce0e 9ebc 6f2f 03bd 0cfc 583c
00000020: 4a0d 9dbd 8b73 e03c dfe3 36bd 9b49 c5bd
00000030: 7fee d4bd 7d2f fabd ea26 b63d 0484 10bd
00000040: b271 f7bd 2d27 a4bb 365f d03d 1cd9 193c
00000050: a58a b93c ea89 e83d fa21 9cbb d800 e03d
00000060: cf27 dbbd 92d1 1bbd 2e85 f73c 619f 68bd
00000070: 6b79 153d 64bd b23d 7617 d6bd a139 a8bc
00000080: ac0d b0bd c999 79bd 3954 f4bd 6eb2 9abc
00000090: 89cd 9b3c 09a5 1c3d d8c8 a4bd 451c 96bd
000000a0: 7bd9 12bc e7ee 373d c444 e4bd 4512 923d
000000b0: 6176 ad3c 7921 c5bd 22d1 913d 541a 0f3d
000000c0: 8316 47bd 1abf 343c 2125 013e a54b d0bd
000000d0: b2c4 4d3d 34c2 8bbd 1384 1e3d 42f5 5abd
000000e0: cb2f 17bd b7fb 773d 5a35 a83d ae16 82bd
000000f0: ed7a 033e 144e 54bd 163e b3bd 0677 f43d
