models/crispr_cnn_trained_day6.pth (torch, 293037 bytes, 7 tensors)

conv1.weight f4 [32, 4, 3]
000000 43 71 2e 3e 4a cb 21 be bf be 63 3d 42 c7 e1 3d
       0.17035393 -0.15800205 0.05560183 0.110243335
000010 30 54 24 be 16 34 1f bd 5e dc 9d 3e 0f f2 03 3e
       -0.1604774 -0.038868032 0.3083219 0.12885307
000020 27 c1 36 3e 80 c9 83 be b3 64 19 be ce 70 ec 3d
       0.1784712 -0.2573967 -0.1497982 0.11544953
000030 ee 62 a2 3d 09 87 90 3e ca 51 80 3d c6 46 ac 3d
       0.079290256 0.28228024 0.062656 0.084119365
000040 d3 53 0c 3e d5 d5 99 3d 5d a1 86 3e ab c0 21 be
       0.13703851 0.07511488 0.26294985 -0.15796153
000050 18 76 88 3e 19 e5 32 be 29 4e 23 3e 3c c2 ae bd
       0.26652598 -0.17470206 0.15947784 -0.08533141
000060 12 46 2e 3e 1a 3a 6a 3c f4 1c 9c 3e 7e 85 8b 3e
       0.17018917 0.014296079 0.3049084 0.27250284
000070 3c 72 35 3e a1 7f 8a be 0b 63 8e 3d bb c9 30 3e
       0.17719358 -0.27050498 0.06952485 0.17264454
000080 98 56 13 3e 21 86 92 be 0b 05 6a be fd 3d 86 be
       0.14388502 -0.28617957 -0.22853486 -0.26219168
000090 03 16 9c be 65 34 ae bd 55 65 94 bd 96 2e 91 be
       -0.30485544 -0.08506087 -0.0724589 -0.28355855
0000a0 aa e3 83 be 41 3e 85 3d 02 57 8f 3e d8 26 79 3d
       -0.2575963 0.065060146 0.2799607 0.06082806
0000b0 f2 b4 79 3e d3 e7 52 3e bf 0e b2 3d f5 93 a9 be
       0.24385431 0.20596246 0.08694219 -0.33120695
0000c0 83 ba 99 be 91 e1 35 3e 97 9d 88 3e 61 ee ab be
       -0.3002511 0.17761828 0.26682732 -0.33580306
0000d0 57 96 39 bd 35 0f 99 3e b8 f1 c1 bd 78 0e 2d bc
       -0.04530939 0.29894415 -0.09469932 -0.010562532
0000e0 b2 20 73 be 99 cc 17 3e 69 2e 8d bd db 29 10 be
       -0.23742941 0.14824142 -0.06893618 -0.14078467
0000f0 eb fb 58 bd 8b 13 58 3e f1 57 ab bd cc c4 a7 be
       -0.052974623 0.21101205 -0.08366383 -0.32767332
000100 0d 11 99 be 50 e1 5b 3e 30 fd 5b bd 47 37 20 3e
       -0.2989582 0.21472669 -0.053708255 0.15646087
000110 30 1c 05 bb 8f 79 89 be 14 76 9f bd 16 88 11 be
       -0.002031099 -0.26850554 -0.077861935 -0.14212069
000120 5f 14 40 be d6 2b 97 bb 03 47 00 be 26 89 93 3d
       -0.18757771 -0.00461338 -0.12527089 0.07203893
000130 b0 b1 a3 bd 0c 84 47 be a4 b8 85 3d 46 f9 eb bc
       -0.079928756 -0.19483966 0.06529358 -0.028805386
000140 95 ad c9 bd 53 80 70 3e 0b d5 c2 bb 80 0e 5f be
       -0.09847561 0.23486452 -0.005945807 -0.21782875
000150 f4 39 90 be 17 87 eb bd 62 c0 2e 3e f9 59 df bd
       -0.28169215 -0.11500376 0.17065576 -0.10905833
000160 d6 fc 2c be a5 ca 84 3d 32 82 9a 3e 94 5f 87 bd
       -0.16893324 0.06483964 0.30177456 -0.06610027
000170 dd ed 92 bd 24 f7 91 be 5a c0 90 bb 6a 36 80 3e
       -0.07174275 -0.28508866 -0.0044174613 0.25041515
000180 ef b6 25 bc ed 29 00 3e 66 65 9d 3e 49 dd 0d be
       -0.010114416 0.12515993 0.30741423 -0.13853945
000190 b7 3a 69 3e 79 dc bf be 33 19 8c 3e 60 15 c4 3d
       0.22776304 -0.37472895 0.27362975 0.095743895
0001a0 c7 72 28 3c 0a 7a d3 bd b8 30 8f bd 9b f5 f6 3d
       0.010281271 -0.103260115 -0.06991714 0.12058564
0001b0 8f 29 83 3d d8 7a 3c 3e b5 4f 16 3c 3b f4 8c be
       0.06404411 0.18406236 0.009174277 -0.27530083
0001c0 64 1d 90 be 00 06 60 3e d1 fd 9b bd 62 be 86 3d
       -0.28147423 0.21877289 -0.07616771 0.065792814
0001d0 86 b8 9d be 63 17 88 3d 16 93 3d be 55 c4 40 3e
       -0.30804843 0.06645086 -0.1851314 0.18824895
0001e0 7e f6 64 3e 63 ea 57 be 85 86 26 be 18 de a0 3c
       0.22359654 -0.21085505 -0.16262253 0.019637153
0001f0 fe 06 82 bc 61 b9 78 be cf 19 19 3e 74 36 dd bd
       -0.015872475 -0.24289466 0.14951251 -0.10801402
000200 b4 3b 5a bc cb aa 86 3e be df 4d 3d 66 a4 1c 3e
       -0.013319898 0.2630218 0.050262205 0.15297088
000210 a2 f9 20 3e a8 c8 7e be a2 d4 a4 3d 29 5b 28 3e
       0.15720227 -0.24881232 0.08048369 0.16441025
000220 d1 0c 60 bd 47 20 51 3e cf 67 47 be 9f 1b 5e be
       -0.054699723 0.20422469 -0.19473194 -0.21690224
000230 7f e6 11 3e 79 e5 21 3e a2 5f e8 3d f6 dc 4d be
       0.14248084 0.15810193 0.113463655 -0.20103821
000240 c2 51 42 3d 6c f3 27 be a4 e5 6d 3e 73 a5 d8 3d
       0.04744125 -0.16401452 0.23232132 0.10578432
000250 5d ac 98 3e 12 aa 8a 3e 0a 30 95 3e 3e b2 8b 3e
       0.29819003 0.27082878 0.29138213 0.27284425
000260 1e cb 89 bd 29 76 1a be f8 8e 8d 3e 2c 58 88 3e
       -0.06728195 -0.15084137 0.2764814 0.2662977
000270 0d 67 14 3e ad 12 47 be 3f 67 25 3e 2b ab 23 be
       0.14492436 -0.19440718 0.16152667 -0.15983264
000280 c0 b0 08 be 4c 6e 06 be a1 07 33 3e f8 22 a0 be
       -0.13348675 -0.13128012 0.17483379 -0.3127668
000290 db 70 79 3e ce a7 ab be dd d9 67 3e 51 e8 56 be
       0.24359457 -0.33526462 0.22641702 -0.20987059
0002a0 06 7e 30 3e 04 d9 b6 be 74 37 de bd 03 92 20 3e
       0.17235574 -0.35712445 -0.108504206 0.15680699
0002b0 48 96 1b be 65 80 04 be 49 09 86 3e aa 92 1c be
       -0.15194046 -0.12939604 0.2617896 -0.15290323
0002c0 99 d3 d7 3d 95 e0 2a 3e f3 f5 03 3e b8 62 b4 3d
       0.10538406 0.16687234 0.12886791 0.088078916
0002d0 28 70 43 3d ea e7 19 be e6 d8 07 be 41 74 3b be
       0.047714382 -0.15029874 -0.13266334 -0.18306066
0002e0 a5 fd 56 be 00 db 54 bd 94 d4 24 3e a5 f4 26 be
       -0.20995195 -0.051966667 0.16096717 -0.16304262
0002f0 50 3a 73 be 36 d5 1d 3e b0 ce 25 3d 67 5d 83 be
       -0.23752713 0.15413365 0.040480316 -0.25657198
000300 92 c0 46 bd a6 07 a3 3d 77 26 a0 3d ef 7e 87 be
       -0.048523493 0.07960443 0.078198366 -0.2646403
000310 91 be a2 3e 9b a1 bd 3d 11 09 4d be cf da c5 bd
       0.31786016 0.092593394 -0.2002299 -0.09660875
000320 5e 40 89 3e c8 32 c6 3d b7 b5 99 bd 87 4c 92 be
       0.2680692 0.096776545 -0.075053625 -0.2857401
000330 e9 92 01 3d b8 2b 15 3e 41 d0 5c 3e ac f5 9e 3d
       0.031634245 0.14567459 0.21563818 0.07761702
000340 84 d7 7b bc 66 b9 69 be 8a 3e d2 3d 16 4b 53 3e
       -0.015371207 -0.2282463 0.10265835 0.20634112
000350 13 93 e4 3d 23 30 e8 3d 5f 50 12 3e e7 a9 47 3e
       0.11160865 0.11337306 0.14288472 0.19498406
000360 0a d9 3e 3e 75 cf 05 be 16 23 8e be a7 e9 8c be
       0.18637481 -0.1306742 -0.27761143 -0.27522013
000370 00 02 3b be ce 59 35 3d 7b 90 88 3d fc 50 41 3e
       -0.18262482 0.044275098 0.066681825 0.1887855
000380 13 12 c9 3d c3 e7 6a be 46 3a 7e 3e 0f dd 0e be
       0.098179005 -0.22939973 0.24826917 -0.13951515
000390 a3 a5 13 bd 13 93 87 3d fa 44 bd bd 17 8c 16 be
       -0.036046635 0.06619849 -0.09241672 -0.14701878
0003a0 83 28 00 be 25 42 88 3e e8 af 2b be 00 7e 4e 3d
       -0.12515454 0.26612964 -0.16766322 0.05041313
0003b0 f3 d2 44 3e 81 3f 44 3e 41 68 60 3e 8e a3 9e be
       0.19221096 0.1916485 0.2191477 -0.30984157
0003c0 01 cf 84 3d 25 66 00 be 86 df 62 be d3 ba 2e 3e
       0.06484795 -0.12538965 -0.2215558 0.17063455
0003d0 59 90 33 3e e8 92 4d be 0a b0 1e be af 73 67 be
       0.17535533 -0.20075572 -0.15496841 -0.22602724
0003e0 2c 37 a5 3c b5 b0 6f be a8 95 50 3e e3 ec 92 3e
       0.02016791 -0.23407252 0.2036959 0.28696355
0003f0 4e 69 b8 3d 45 c2 93 be a3 dd 07 3e 94 63 53 be
       0.0900446 -0.28859153 0.13268141 -0.20643455

conv1.bias f4 [32]
000000 6a 02 6b 3e fb 49 dc bc b8 13 42 be 3b 15 b6 bc
       0.2295014 -0.026890745 -0.18952835 -0.02222692
000010 9a 10 40 3d 2a c5 03 3e b7 af 6a 3e ee c8 cc 3d
       0.046890832 0.12868181 0.22918592 0.09999262
000020 5c 05 0a be 16 5d 23 3d ef 3d ef 3d 4d b5 22 3e
       -0.13478607 0.039883696 0.11681735 0.15889473
000030 9e 83 5e be d6 b7 10 3e 06 7d b6 3d 77 65 52 be
       -0.21729895 0.14132628 0.08910565 -0.20546518
000040 22 73 12 3e 06 69 7b be 86 2c eb bd 78 7c b6 3b
       0.14301732 -0.24551782 -0.114831015 0.005569037
000050 45 c4 30 3e ef 04 71 3d 2e 13 81 3e 95 28 53 3e
       0.17262371 0.058842596 0.25209945 0.2062095
000060 1b f2 33 3e b3 cf 75 3d cd 90 2c bc e1 92 2e be
       0.17572825 0.06001253 -0.01053257 -0.17048217
000070 14 83 23 3d 24 ae 5c 3d dc 85 c0 bd ae 57 fc bd
       0.039919928 0.05387701 -0.09400532 -0.12321411

conv2.weight f4 [64, 32, 3]
000000 f7 d6 c1 bd cc a9 1d bd 2f d0 08 bb f2 19 97 3d
       -0.094648294 -0.03849201 -0.002087604 0.073779956
000010 ae 86 76 bd 28 b3 20 bd cd d5 a4 bd b2 dd f5 3d
       -0.060187034 -0.039233357 -0.08048592 0.12005176
000020 58 2d 51 bd 86 01 07 3e f7 53 82 3d 9d 90 65 bd
       -0.051068634 0.13184175 0.06363671 -0.056046117
000030 e9 2e 00 bd 24 a2 86 3d 06 24 91 bc 9d 0b 09 bd
       -0.031294737 0.065738946 -0.017717373 -0.03345834
000040 c6 06 90 3d aa ca ec 3d 6c ad 17 bd cb 67 2e 3d
       0.07032542 0.115620926 -0.037030622 0.042579453
000050 b6 5f c4 3c 6f 23 16 3d 94 a8 3b bd 96 b9 30 bd
       0.02397142 0.036654886 -0.045815066 -0.04314574
000060 74 57 e3 bc 5c 65 db bd 83 0c 49 be ad 5f 99 bd
       -0.027751662 -0.10712692 -0.19633679 -0.07488952
000070 a3 19 5b be 38 85 e3 3d 9d b8 8e bd 5e 86 6b bc
       -0.21396498 0.11109394 -0.06968806 -0.014375297
000080 6a 09 3f 3d 14 c1 61 bd c8 4a 36 3d c6 8a e5 bc
       0.046639837 -0.055115774 0.04450491 -0.028020274
000090 9d a0 76 3d 03 da 4e 3d b8 0f 88 bd ba 92 24 3d
       0.060211767 0.05050088 -0.06643623 0.04017899
0000a0 c5 76 57 bd 05 f6 3c 3d 92 69 06 3c 5d 0f 64 3c
       -0.0526035 0.04613306 0.008203881 0.0139196785
0000b0 7b b0 23 bd 24 a8 09 3d 40 65 a3 bd 9f b3 4c bd
       -0.039963227 0.033607617 -0.07978296 -0.049975988
0000c0 9b ae 65 3c dd e1 d4 3d 0d dd fc bd 2b da 9b bd
       0.01401868 0.103946425 -0.123468496 -0.076099716
0000d0 3a d1 59 3d ff fc bc 3c 79 9c 0e be 53 ce e4 bd
       0.05317805 0.023069857 -0.13926877 -0.11172166
0000e0 d8 46 db 3d fd 40 28 bd ba 37 94 bd 33 c9 ad 3d
       0.10706872 -0.041077603 -0.072371915 0.08485641
0000f0 ad 90 ce 3d 09 40 70 3d c7 47 2b bd de c5 0a 3d
       0.100861885 0.05865482 -0.0418165 0.033880107
000100 33 e6 e9 bc 14 76 77 3d c6 62 2f bd 9c bb 90 bc
       -0.02855215 0.060415342 -0.042818807 -0.017667584
000110 7b 37 c7 bd 15 2d 61 bd 57 a3 c6 3d b7 9b 40 bd
       -0.09727379 -0.054974634 0.09699123 -0.0470235
000120 4b 2e 16 be 9c 74 31 be 5c 3e 2c 3d 64 1c d7 bc
       -0.14666097 -0.17329639 0.042051658 -0.026258655
000130 55 0f 22 3d 44 e0 80 bd ce ab 09 be bd 4e de 3c
       0.039565403 -0.06292775 -0.13444445 0.027137155
000140 cf 00 a3 3d da 9a e9 3d 70 47 01 3d df 5c 05 bc
       0.079591386 0.11406489 0.03156227 -0.008139818
000150 8f f9 c4 bc d5 40 4a be 60 6f d8 3d 02 24 f7 bd
       -0.02404478 -0.19751294 0.10568118 -0.12067415
000160 0f f0 5c bd 09 a3 4d 3d 54 24 ea 3c 27 60 8e 3c
       -0.053939875 0.05020431 0.028581776 0.017379833
000170 a1 ad 41 3e f2 cc 68 bc 1a a6 d4 bd de 0d 14 3e
       0.1891389 -0.014209019 -0.10383244 0.14458415
000180 25 e7 5c 3d ad 17 bf bd 3f f9 ec 3c 63 cb b9 3d
       0.053931374 -0.09330688 0.028927444 0.09071996
000190 07 c3 c9 3c 8e 7c b7 3d 52 6d c4 3d f9 19 c3 3c
       0.02462913 0.08959304 0.09591164 0.023816096
0001a0 20 d7 41 3d b9 39 4e 3d c2 23 b3 3d 7d c9 d6 bc
       0.0473243 0.050348017 0.08747055 -0.026219124
0001b0 2c 93 65 3d d2 04 8d 3d 69 ff 5f bc ea c9 80 bd
       0.056048557 0.06885685 -0.013671734 -0.06288512
0001c0 d0 d1 a5 bd e9 0d ee bc b3 57 78 3d 84 42 82 bd
       -0.08096659 -0.029059367 0.06063051 -0.06360343
0001d0 15 27 45 3d 64 73 cb bd b0 07 9d bd 83 ec 44 bc
       0.048132975 -0.099341184 -0.07667482 -0.012019279
0001e0 63 e5 11 3d 81 d0 28 3d b3 cb e0 bc 3d e5 9f 3d
       0.03561915 0.04121447 -0.027440881 0.078073956
0001f0 45 1b 9c 3d 91 bd bd 3d 2b 44 b8 3d 6e 61 39 bd
       0.07622389 0.092646725 0.08997377 -0.04525893
000200 d6 f5 19 3c 04 3b a2 bc 15 16 c9 3d cd ba 9b bd
       0.009396991 -0.019803531 0.09818665 -0.07603989
000210 75 eb 96 bb 66 be 92 bd 9c 58 bd bd e8 40 d9 3c
       -0.0046057054 -0.07165222 -0.092454165 0.026520208
000220 5e 4f 55 3d fb 1b ab bd ac 28 6d 3d c8 80 c1 3d
       0.052077644 -0.08354946 0.057900116 0.09448391
000230 a2 52 b5 bd f0 ba f2 bc b8 24 ce 3c 90 97 8a bb
       -0.088536516 -0.029630154 0.025163993 -0.0042294934
000240 c1 2b 99 bd 03 b0 93 3d dd c4 47 bd 63 a0 e5 3b
       -0.074790485 0.07211306 -0.048771728 0.007007645
000250 16 79 6c bd 0c 15 41 bd e6 fc a0 3b 14 11 0e 3d
       -0.057732664 -0.047139212 0.0049129603 0.034684256
000260 1b c1 8d bd 87 8f 19 bd f8 77 49 bd 18 4b 8f bd
       -0.069215976 -0.037490394 -0.049186677 -0.06996745
000270 75 e4 57 bc 21 3f 98 3d a7 63 be 3c cf fe 94 bc
       -0.013177027 0.07433916 0.023240877 -0.018187908
000280 36 17 04 3c b5 65 af 3d c6 1b 36 bc 47 67 be 3c
       0.008062175 0.08564321 -0.01111502 0.023242606
000290 cf 95 08 bd 83 0f 23 3d 30 1d 71 3c 42 75 84 3d
       -0.033345994 0.039809715 0.0147164315 0.06467678
0002a0 92 63 78 3d e8 be 15 3c 85 46 57 bd 9a 1d 95 bc
       0.060641833 0.009139754 -0.052557487 -0.018202592
0002b0 e8 5c b9 bd c1 3a ac bc aa de 20 3c 65 63 b6 bd
       -0.090509236 -0.02102411 0.009818712 -0.08905677
0002c0 48 56 13 3c 5f a2 97 bd 74 48 07 3d 85 54 83 3b
       0.008992739 -0.07404017 0.03302808 0.0040078782
0002d0 55 6b 6a bc ec dd 81 bb ef 16 b0 bd 20 ec 4d 3d
       -0.0143078165 -0.0039632227 -0.08598124 0.050274014
0002e0 07 51 aa 3d 0e 5c e3 bd 76 f1 04 be 90 09 03 3d
       0.08316236 -0.111015424 -0.12982735 0.03199154
0002f0 7c b5 9a 3d 91 49 82 3d 7f 7e 58 3d b8 51 bb ba
       0.07554147 0.06361688 0.05285501 -0.0014291322
000300 8a 23 6c 3d 62 39 c5 bd 20 bb ac 3c 41 0e 39 bd
       0.05765108 -0.096300855 0.021085322 -0.04517961
000310 96 8f 56 ba 12 6c ab 3b 05 c7 0b bd 76 76 80 bd
       -0.0008184848 0.005231389 -0.034125347 -0.06272595
000320 ab 87 ab 3d 67 a9 78 3c 1d ff 97 bd 7e fc 9d bd
       0.08375486 0.015177107 -0.07421706 -0.07714175
000330 35 6e 3f bd c0 7d 0e 3e 67 f8 94 bd 9d e0 85 3d
       -0.04673596 0.13915157 -0.072739415 0.06536982
000340 b2 c6 4a bd 17 1a 30 bd 01 cb 69 bd fa 1d 03 3d
       -0.049505897 -0.04299363 -0.057078365 0.03201101
000350 d1 a5 be 3c 91 a4 91 bd 7e d0 02 be 9a 2b a6 bd
       0.023272427 -0.07111467 -0.12774846 -0.08113785
000360 b8 b4 03 3b 38 b4 6c bd 61 49 56 bd d3 dd c4 3d
       0.002009673 -0.057789057 -0.052316073 0.09612622
000370 e9 fa bf 3d bd 1b 85 bd 52 1e 06 be cc f1 5c bd
       0.09374029 -0.06499431 -0.13097504 -0.053941533
000380 89 f2 fc bd a0 ab ba bc 36 90 48 bc 6d 0c ae 3c
       -0.123509474 -0.022786915 -0.012241414 0.02124616
000390 c7 f0 10 bc 7f 6f f3 3d 6e e3 54 ba 79 21 88 3d
       -0.008846468 0.118865006 -0.0008121048 0.066470094
0003a0 a9 db 84 bd d3 59 a3 bd bb 15 70 3c 9d 77 06 be
       -0.06487209 -0.07976117 0.014653618 -0.13131566
0003b0 9c 6e ba bd 80 18 bf 3c c0 86 94 bd 00 cd 56 3d
       -0.09103128 0.023327112 -0.07252264 0.052441597
0003c0 1a ee 91 bd ae 15 e6 bc c4 17 b5 3d 99 40 1a bc
       -0.071254924 -0.02808651 0.088424236 -0.009414815
0003d0 8b bf a1 bd 07 e7 07 3d ee 53 3d 3c e1 4b 5f 3d
       -0.07897862 0.03317931 0.011555655 0.054515723
0003e0 b4 a9 62 bb 5b 56 7d bc e8 d0 54 bd 97 3c d3 bc
       -0.0034586014 -0.015462483 -0.05195704 -0.025785727
0003f0 8b b5 92 3d c0 cb 09 be e3 da 9c bd 97 da f7 bb
       0.07163533 -0.1345663 -0.07658937 -0.0075638997

conv2.bias f4 [64]
000000 01 b0 c1 bd 27 16 f7 3c 57 62 84 bd 13 ff 0d 3c
       -0.09457398 0.03016193 -0.06464069 0.008666771
000010 d5 22 b3 bd ee ad cd bc 28 fa dd 3c 02 d2 bb 3d
       -0.08746878 -0.02510735 0.027096823 0.09170915
000020 5b 39 25 3d cc 36 70 3d c2 ad b5 bc 28 0c 83 3d
       0.0403379 0.05864601 -0.02217758 0.06398803
000030 83 f2 07 3d 82 b9 58 bd c7 0e 51 3d ba de bc bd
       0.03319026 -0.05291129 0.051039483 -0.09222169
000040 3f c2 5f 3d d3 42 a1 3d c5 9c 54 3d 11 36 56 3d
       0.054628607 0.07874074 0.05190732 0.052297655
000050 0d cf 2b 3d 2e 41 2d bd 93 18 0a bd f0 48 be bc
       0.041945506 -0.04229849 -0.033714842 -0.023228139
000060 83 fd 8f 3c f6 29 a6 bb 26 5c 8b 3d 19 a9 88 3c
       0.017576938 -0.00507092 0.06804685 0.016682195
000070 f0 aa 90 bb 22 dc 52 3d 2f a8 1f bd 2c ad 13 3d
       -0.0044149086 0.051479466 -0.03897875 0.03605382
000080 33 97 84 bd 28 52 9d bd e6 3e b8 3d b8 86 a4 bd
       -0.064741515 -0.07681686 0.08996372 -0.08033508
000090 bb b0 b3 3c 95 1e 75 3d 9b 8e 29 bd 77 c6 15 3d
       0.021934858 0.05984362 -0.041395765 0.036566224
0000a0 96 79 6f 3d c7 9e c9 bc 6c 5d 74 3d fb 43 b3 3d
       0.058465563 -0.024611844 0.059659407 0.087532006
0000b0 48 63 b5 bd 1b 11 3a bd 8f 32 78 bd 3f 62 32 bd
       -0.08856827 -0.04542647 -0.06059509 -0.043550726
0000c0 8b 26 90 3d 63 68 c1 bd b8 30 ce bd 4e a0 2e 3d
       0.070386015 -0.09443738 -0.10067886 0.042633347
0000d0 da 89 b8 3d 2d 5e 83 3d 55 ef 84 bd 59 da 39 3b
       0.09010668 0.06414447 -0.064909615 0.0028358905
0000e0 92 6c 3d 3c 64 79 df bc da 1d ff bb 25 36 ad bd
       0.01156153 -0.027279563 -0.007785541 -0.08457593
0000f0 43 c0 8b bd 0c 87 04 bc bb f4 b4 3d 73 bc c7 bc
       -0.068237804 -0.008088838 0.08835741 -0.024381852

fc1.weight f4 [64, 1024]
000000 81 89 22 3d cf 96 87 bd 1a 6b 29 bd 3e ec 88 bd
       0.039681915 -0.06620561 -0.041361906 -0.066856846
000010 97 b4 cf bd 36 ba e4 ba 14 76 be 3d 6c 37 3a 3d
       -0.10141867 -0.0017450515 0.09299865 0.04546301
000020 07 0f c1 bc c0 90 3c 3c 6a 50 72 bd 08 58 b6 3d
       -0.023566736 0.01150912 -0.05915872 0.089035094
000030 b8 de 26 bd 55 86 58 3c 04 ce 33 bd d4 0c ea 3c
       -0.040739745 0.013215621 -0.043897644 0.02857057
000040 46 5c 2d bc b3 05 37 bb 93 76 c0 bb be fc 13 3a
       -0.010581082 -0.002792698 -0.00587351 0.00056452665
000050 37 93 d5 3c 5d e0 eb 3c 1d eb b9 3c b8 8a 1b bd
       0.026071174 0.028793508 0.022695119 -0.03797409
000060 a7 0e 1e bc c9 d1 cd bc 84 30 64 bc 5f 61 a4 3c
       -0.009647048 -0.025124447 -0.013927583 0.020065961
000070 8f 9f 0e bd da 90 b0 ba 3b 81 ae bc 52 83 4e bc
       -0.034820136 -0.0013470904 -0.021301856 -0.012604551
000080 73 52 94 3d 77 28 25 bd d9 7c f0 39 4b e5 ba 3c
       0.072422884 -0.040321793 0.00045869386 0.022814414
000090 6d ac 95 bc 01 36 12 3d db 24 99 3c c6 c6 4b bd
       -0.018270696 0.035696033 0.018694332 -0.049750112
0000a0 0e 9a c4 3d bb 0d ea 3d b2 45 07 bd 47 61 94 bd
       0.09599696 0.114284 -0.03302545 -0.07245117
0000b0 51 3f f2 37 d6 a5 b6 3c 16 b0 ab bc 58 4d 9f bd
       2.8878132e-05 0.022295874 -0.020957988 -0.07778424
0000c0 9f c0 56 bc a8 28 dd 3b ad 8b 74 3d 49 30 ca 3d
       -0.013107448 0.0067492314 0.059703518 0.09872491
0000d0 e7 16 f1 3d 2d 3a a4 3d ca 8f 13 3d 0c 08 79 bd
       0.117719464 0.08018909 0.0360258 -0.06079869
0000e0 92 42 58 bd fb 1b 9d bb 2f 83 1b be d3 1a 04 3c
       -0.05279786 -0.0047945953 -0.15186761 0.008063036
0000f0 ec 7d e1 3b 07 91 d0 3c 09 a2 09 3d 95 b2 ed bc
       0.006881466 0.02545978 0.033601794 -0.029015819
000100 a4 d7 d5 3c 04 66 52 bd 11 46 73 bc b5 7e 30 3d
       0.026103802 -0.05136682 -0.014848248 0.043089587
000110 80 86 3e 3d ae ca b8 3d 1a fd 32 3c ea 83 dd 3c
       0.046514988 0.09023033 0.010924602 0.02704044
000120 38 61 d2 3c 6d 54 0b 3c ba 67 e1 bc 68 33 92 bc
       0.025681123 0.008504015 -0.027515281 -0.017846778
000130 c5 57 9c 3b 52 c0 28 3c 8c 08 19 3a 7b 31 b3 3a
       0.004771205 0.010299759 0.00058377604 0.0013671363
000140 af 91 88 bb ab 8a 47 3d 88 79 b5 bb 87 3a 67 3d
       -0.0041677575 0.04871623 -0.0055381693 0.0564523
000150 dc 3c 39 bd d6 0e 2b bd d6 71 0c be 0f c5 ac bd
       -0.045224056 -0.041762196 -0.137153 -0.084360234
000160 08 34 f3 3c a6 db 18 bd 7b d4 c5 3d 6a de b4 bc
       0.029687896 -0.037318848 0.09659668 -0.022078712
000170 33 78 1a 3d bb 65 18 3c 6b 03 8b 3c e3 07 f5 3c
       0.037712287 0.009301598 0.016969403 0.029910987
000180 c0 e0 d4 3c 2c 10 7c bb 49 31 86 3c e0 6d 85 3b
       0.025986075 -0.0038461788 0.016380923 0.004071936
000190 45 77 a4 3c 3a 83 cf 3c 0b f3 10 3a 89 8b dc bc
       0.020076403 0.025331128 0.000552938 -0.026922004
0001a0 22 2f e1 3c 7a 57 bf 3c a2 04 0c bc 0b 73 c9 bb
       0.027488295 0.023357142 -0.008546026 -0.0061477474
0001b0 79 85 bd bb 9a af bd 3b 59 48 b5 bc a5 53 d6 3b
       -0.0057837334 0.0057887556 -0.022129225 0.006540733
0001c0 99 7e 4a bc 08 25 7c 3b 74 1f 08 3c 71 ec dd bc
       -0.012359285 0.003847422 0.00830828 -0.027090283
0001d0 1a 38 94 3c 2a 26 6c 3c ba 37 70 bd 05 77 d5 bc
       0.018093158 0.014413396 -0.058646895 -0.02605773
0001e0 df 62 ba 3c e7 75 9e 3c 03 82 46 3d 55 b2 a4 3b
       0.022752224 0.01934333 0.048463833 0.0050261416
0001f0 ce 10 62 bc 15 da 6c 3d 9c e7 4b 39 f6 27 86 ba
       -0.013797952 0.057825167 0.0001944587 -0.0010235298
000200 f2 19 9e bc 0f f6 ff bc 70 3c 47 bb 69 98 0d 3d
       -0.019299481 -0.03124526 -0.0030401014 0.034569178
000210 fb e6 cc 3a 69 bb 7a 3c 3e 26 16 3b 9b 21 11 3d
       0.0015632802 0.015303471 0.0022910978 0.03543244
000220 55 20 9c bb 0b 12 ed 39 8a 53 ab 3c 7c 7a 23 3d
       -0.0047645965 0.00045217606 0.020913858 0.039911732
000230 19 bb 74 3b fc 75 fa 3c 3b 37 c6 3b 40 05 e1 3c
       0.0037342964 0.030573837 0.0060490645 0.027468324
000240 9c 9b 5e bd 30 43 03 3d 08 b1 5b 3d 37 1e 02 3d
       -0.05434762 0.032046497 0.053635627 0.031767096
000250 84 8b 20 bd 1a 19 18 3d 2f 25 78 bb 16 7c 66 3b
       -0.039195552 0.037133314 -0.003786396 0.0035169176
000260 37 02 72 3c ee 4c 29 bd 4f 5a 90 3b c6 ee 32 3c
       0.014771036 -0.04133313 0.004405297 0.010921186
000270 02 46 1f 3d 43 16 4d 3d 2b c2 a3 3c 5f 67 53 bd
       0.038885124 0.05007006 0.019990047 -0.051612254
000280 e2 29 9a 3d c8 db 00 bd 9c dc ef 3c 41 52 41 bc
       0.0752752 -0.0314596 0.02928 -0.011799396
000290 50 17 24 3c 7d 86 a5 bd 68 7f dd bb 82 4e b0 bd
       0.010015324 -0.08082292 -0.006759573 -0.08608724
0002a0 0c c3 20 3d c2 6b 9b bd 5b c6 ca bd fd 6c 00 bc
       0.03924851 -0.075889125 -0.099011146 -0.007838485
0002b0 64 02 7e bd 41 4d 88 3d 00 94 15 3e 69 e5 2b 3c
       -0.062014 0.0665536 0.14607239 0.010491707
0002c0 64 62 97 bc 30 1c 60 bc 8a 1d 9c 3c 70 f6 12 3d
       -0.018479533 -0.013678595 0.019057054 0.035879552
0002d0 79 68 17 3d 0b 86 26 3c 02 75 06 bc 8b b2 17 bc
       0.036964867 0.010163794 -0.008206608 -0.009258877
0002e0 66 cc 08 3c 63 6a c3 3c 4e 2d 74 ba 98 e4 54 3c
       0.008349514 0.02385444 -0.0009314612 0.012993954
0002f0 fb 9a ec 3c 23 bc 07 bc 94 d6 45 3b 91 1b 7c bb
       0.028882494 -0.008284601 0.0030187713 -0.003846858
000300 e9 7b 95 3c f7 0b 97 bc 8d 44 59 bc e8 54 80 bc
       0.018247562 -0.018438322 -0.013260973 -0.015665486
000310 0e 2d 49 bb da 9e ad bb 0c aa b9 3c 98 6b 94 3b
       -0.003069702 -0.0052984776 0.022664092 0.0045294277
000320 f9 31 6c bc 0a 2b 87 3c c7 02 fc bc 5d 3b b0 bc
       -0.014416211 0.016500015 -0.030763043 -0.021512682
000330 14 fd d9 bb 16 b5 1c bc 4e 83 ef bb 5b 55 ec 3c
       -0.0066524837 -0.009564659 -0.007309354 0.028849294
000340 c3 2b 9d bc a0 45 02 bd dd 21 21 3c 00 27 dc 3b
       -0.019185906 -0.03180468 0.009834734 0.0067185163
000350 f6 42 29 3a 15 69 70 3c 4d e3 b4 3c a7 e1 2e 3c
       0.00064568163 0.014673491 0.022081042 0.010673917
000360 9e 31 25 3d 62 06 c0 bc a4 b9 8b 3b 2c da ac bb
       0.04033052 -0.023440544 0.0042640734 -0.0052750316
000370 b2 70 61 bc f6 f3 34 bc 14 74 14 bd 67 39 8a 3d
       -0.013759779 -0.011044493 -0.036243513 0.0674923
000380 7b 02 c8 3c f8 73 b6 b8 8f d9 6a bc 90 b2 d8 3c
       0.024415245 -8.700037e-05 -0.014334097 0.026452333
000390 e5 6c 0d 3d 84 bb b7 3c 2a 82 b8 3b be 1b 0d bc
       0.034527678 0.022428282 0.005630751 -0.008612571
0003a0 4e af ee 3c 31 0b 98 3b 60 ab a1 3b a7 94 c5 3b
       0.029136326 0.004640006 0.0049337596 0.0060296836
0003b0 77 5a 09 3d d0 b0 ce 3b 2d ff 69 bb 7a db 0f bd
       0.03353354 0.006307699 -0.0035705075 -0.03512142
0003c0 55 39 e8 bb 0f b3 0d 3b 2e 22 c9 3d b9 1c ce 3c
       -0.0070869126 0.002162162 0.098209724 0.02516018
0003d0 66 3b 06 be 17 1b 81 3c 63 96 ae 3c 3e a2 99 3b
       -0.13108596 0.015759988 0.021311944 0.00468853
0003e0 a4 28 84 3c d6 50 93 3d da 19 14 bc 14 8a 91 3a
       0.01613266 0.071931526 -0.009039367 0.0011103773
0003f0 57 2a f3 bd 0a 48 f2 ba d1 d2 c0 3d 6a e9 96 3d
       -0.1187331 -0.0018484604 0.0941521 0.07368739

fc1.bias f4 [64]
000000 0a db be bc 76 81 4e bc 63 88 0b bd b5 7e a3 3c
       -0.023297805 -0.012604108 -0.034065615 0.01995788
000010 56 67 5c bb af 44 d2 bc ad 0f 0d bd 42 54 58 bc
       -0.003363093 -0.025667517 -0.034438778 -0.013203682
000020 a1 67 13 bd 12 55 99 3c e6 fc 10 bc 99 14 91 3c
       -0.0359875 0.018717322 -0.008849358 0.017710017
000030 f1 aa 43 3c 21 5d 05 3d 43 b5 d0 bb be b4 d2 bc
       0.011942611 0.032559518 -0.0063692643 -0.02572095
000040 41 bc ef bc a6 e5 08 bc 61 c9 17 bc e8 29 c5 bb
       -0.029264571 -0.008355534 -0.009264321 -0.0060169585
000050 16 39 03 bc 0b 55 0f 3d e4 67 bf bc e6 99 d0 3c
       -0.008009216 0.034993213 -0.023364969 0.02546401
000060 eb ac 76 bc b2 53 9e bb 5e fe 08 3c bc 8e 06 ba
       -0.015055875 -0.0048317546 0.008361427 -0.00051329634
000070 dc 2b ef 3a 3f e9 ce bb 40 20 2d 3c 7d d3 9d 3b
       0.0018247324 -0.006314426 0.010566771 0.004816471
000080 b2 b3 0b bc 48 11 6d 3c f2 8b 86 3c 99 04 a2 3c
       -0.008526729 0.014469452 0.016424153 0.019777583
000090 b8 d5 eb b9 0a 34 2c ba 3d 22 ce bc 41 9e da 3c
       -0.00044981926 -0.0006569034 -0.02516281 0.02668679
0000a0 76 62 a4 3c 1b dd 3d bc ec c0 60 bc 87 69 46 bc
       0.020066481 -0.01158836 -0.013717871 -0.012110121
0000b0 7c db 9a bc d0 c5 0b bc 57 d4 46 3c 80 f3 f5 bc
       -0.018903486 -0.008531049 0.012135587 -0.030023336
0000c0 2f 9b f3 3c 7f a9 c8 bc 54 40 c0 3c cd fb 9f 3b
       0.029737083 -0.024494885 0.023468174 0.004882312
0000d0 20 70 67 bc 76 e1 ef bc f1 fe 1e bc 16 17 fb 3b
       -0.014125854 -0.029282313 -0.009704337 0.007662664
0000e0 e4 82 85 bc 5b 45 81 bb b9 9f 4b 3c 44 82 9a 3c
       -0.016297765 -0.0039450354 0.012428218 0.018860944
0000f0 47 e4 13 3d 2b 33 aa 3c 9a 71 ea bb b6 a8 78 3c
       0.036106374 0.020776352 -0.0071546556 0.015176943

fc2.weight f4 [1, 64]
000000 3f 66 52 3d 2a 08 9d 3d a7 12 35 bd f8 96 ca bd
       0.05136704 0.07667573 -0.04420724 -0.09892076
000010 ef 8b cf bd f2 8a d8 bc 6d e9 94 bd 49 ff ec bd
       -0.10134112 -0.026433442 -0.07271085 -0.11572129
000020 50 e5 87 bd c5 b2 d7 3d 13 21 43 bc be 49 ad 3d
       -0.06635535 0.105321445 -0.011909741 0.08461331
000030 4e 48 9d bd 6d c4 d1 3d fd 5a 5f 3d cc 20 be bd
       -0.07679807 0.10242543 0.054530133 -0.09283599
000040 15 18 94 bc bb 01 e8 3d 42 49 48 bd 9d 3a 05 3e
       -0.01807789 0.11328455 -0.04889799 0.1301064
000050 ed 64 9d 3d b6 68 fd 3d 60 ef 8a 3d 50 b3 c7 3d
       0.07685266 0.12373488 0.067839384 0.09750998
000060 d1 d8 d2 bd 0c 28 2d 3e 48 87 42 3d 7a 76 a3 3d
       -0.10295261 0.16909808 0.047492296 0.07981582
000070 b0 0d 66 bd c0 b1 14 bd 3c 3e 03 3e 33 9a f5 3d
       -0.056165397 -0.036302328 0.1281671 0.11992302
000080 ab ec c4 3d 2b e1 ab bd c4 69 62 bc 52 d8 7f 3d
       0.09615453 -0.08392557 -0.013819162 0.06246216
000090 05 d9 3e 3d ac 97 90 3d a3 4f dc bd 3d 21 4b 3d
       0.046593685 0.07060179 -0.10757377 0.049592245
0000a0 2d 50 d7 bd 38 d5 b9 bb fd ec 22 bd b3 ae eb 3d
       -0.10513339 -0.0056711696 -0.03977679 0.115079306
0000b0 b9 da fc 3d 7b 7a c3 bd 22 4d 6c bd 06 20 e5 bd
       0.123464055 -0.09544846 -0.057690747 -0.111877486
0000c0 33 f0 f5 3d c0 c2 82 bd 74 c4 0f 3e 71 0f e1 3d
       0.12008705 -0.06384802 0.14039785 0.10989273
0000d0 21 47 7f bd af d6 e5 bd 44 c0 86 3d f8 c9 59 bc
       -0.062323693 -0.11222588 0.065796405 -0.013292782
0000e0 3c e1 be bd 58 82 70 bc 8f b5 c5 bd fd ca 93 3d
       -0.09320304 -0.014679514 -0.0965377 0.07216451
0000f0 6d a9 d2 3d 6e a6 8f 3d a4 a1 0d ba 74 c3 d2 3d
       0.10286222 0.07014166 -0.00054028095 0.10291186
